models/rl_model.pth (torch, 17478 bytes, 10 tensors)

fc1.weight f8 [16, 30]
00000000: 1f48 b422 8450 973f 0e53 5a57 edc0 94bf
00000010: 3aa6 2d72 c871 bcbf 56fe 0252 3a63 b83f
00000020: 9ec8 2d1d 82fa b43f 181d f478 4080 92bf
00000030: 08e3 7ec7 60c2 c13f d22b 6e68 d6a4 bdbf
00000040: 09bf f2d1 5db4 a9bf 4149 ce79 ced5 bcbf
00000050: 70b3 713c 6862 67bf 07a3 018f 2bc5 b3bf
00000060: 892e a800 b3d8 b63f 3a78 1ca4 2202 8ebf
00000070: 2505 1a2c d2d4 c53f 02e8 1ac2 2484 c53f
00000080: fda1 9753 3698 c4bf 20c6 0924 ad2d a9bf
00000090: 84ee a73d f249 c33f 8877 0edf 6249 bbbf
000000a0: b5c7 b074 7018 c5bf ff75 c4c5 94f7 c03f
000000b0: 37ef dcc1 9125 c13f 7c54 a4d7 f9d1 c33f
000000c0: bb21 6457 e384 933f 2b2a 73ba c541 c2bf
000000d0: 9512 4060 6dc2 aa3f 7a30 97ed f08b 6dbf
000000e0: f424 83de ad81 af3f 47f4 cad4 93d2 c03f
000000f0: 02a2 8dc8 4b7f c0bf a10f 128e 9280 b3bf
00000100: da88 94b6 2800 99bf dc21 3b3a 46d2 bdbf
00000110: c73b a440 b427 c3bf 88dc 5664 cb11 b03f
00000120: f306 716d 043d b5bf bb03 a988 217d a6bf
00000130: 2916 22ec 0b45 b9bf eea9 c222 4f42 c53f
00000140: f9ec 96d1 ab1d c3bf 806e e7e4 bbc5 b6bf
00000150: da5d ea2c 0955 bebf 8202 3d63 4694 59bf
00000160: 8d0d 5ab9 9bd2 bc3f f7a9 c813 0873 c13f
00000170: 6b6e 23f9 b7f2 bfbf dd46 2365 339e c23f
00000180: 85ad 8083 513f ab3f c876 164e 9522 b73f
00000190: 0679 6b45 52ef c4bf 44e0 e98a 74da c6bf
000001a0: 05f4 8e1a 10eb bb3f b6c9 c72f 6390 b0bf
000001b0: 7737 8014 4479 c5bf de70 4282 b6d7 c73f
000001c0: 5da2 6fa2 4392 c4bf 2ca0 2bad 490b c73f
000001d0: 9067 a2c7 c0e3 ac3f 860d cafb f73e b93f
000001e0: 19e2 22e8 639b b1bf f54f 0637 9324 b13f
000001f0: 6116 3128 bfba ba3f c618 45e6 427b b73f
00000200: 8b98 d65f 8d32 c33f ae6d 894f cf8b b43f
00000210: 8f3c d812 387a 813f 37fa d9eb 4d36 c2bf
00000220: c966 c38e f699 b03f 4d63 2407 f93a bfbf
00000230: 7cc3 ed2b 92f4 bebf 0cdb fdf5 65f5 bb3f
00000240: a936 e377 ad18 a6bf 3c1c d328 05e2 a43f
00000250: 36bb 6792 453b a6bf 3423 5373 f356 b0bf
00000260: 67d4 dcda 3477 c23f 364c 0d23 9387 bdbf
00000270: 2ec2 b927 ce75 ba3f 8734 d62f 8d01 783f
00000280: 9d00 b212 a44d aabf cbb0 754c cfcf c23f
00000290: 2362 77a6 e0a3 a7bf 6e3c bc52 714f c53f
000002a0: c4f4 aa6c 6e7d c4bf 9955 7043 884f c23f
000002b0: 8af3 adec 071b bd3f 46ea 5e4b 48f8 b53f
000002c0: d656 847d c702 c4bf f3ec b2ce e6d0 a3bf
000002d0: d341 9466 85e1 c13f b567 6b8b 2d54 b3bf
000002e0: 8fe5 8408 ad19 c2bf 5229 5841 ab07 c6bf
000002f0: 7874 f122 e6b0 c6bf 1ff4 8c6c 50e5 bf3f
00000300: 9e48 1392 0601 bdbf f764 ba22 6a3b c5bf
00000310: 7aae 6725 0dec c13f cf66 d4cf 0ac2 b4bf
00000320: 6d8c 638f 1fea 95bf 777b e36f cc4f c2bf
00000330: e8a3 fcd1 1918 8d3f 2b17 7fc2 5b03 c53f
00000340: 8305 c80d bf7b b7bf 35cf dc50 9877 923f
00000350: c279 4533 ffa2 9f3f de7f 8431 e0ec c43f
00000360: 8eb9 5971 9f53 c2bf 4efb ef27 f1e5 bd3f
00000370: 73b4 fdc1 1efb b4bf c877 cc87 6488 863f
00000380: e041 092f 95cd a5bf 487a 6f8d 43e7 c43f
00000390: fd39 2346 b61e a83f bed6 0ad1 7db6 b43f
000003a0: 8a25 9a7b c595 b63f c327 5834 cf32 89bf
000003b0: 8ec7 096f c2f7 a8bf 943b eecf 1f72 c43f
000003c0: fba4 9b33 a0fc c0bf 340f c2bd 5a58 a6bf
000003d0: e4c1 f29f 6e8f a23f 9d9d cd93 6492 c53f
000003e0: 7620 388d 302e c13f 6bd3 6347 830d b1bf
000003f0: cbfb 19bb b898 c33f cea2 3448 034f 9e3f
00000400: 1fc3 273e c056 b5bf 1133 7580 3cf9 81bf
00000410: c938 ddbe fad4 c53f ae82 55d9 43a7 9cbf
00000420: d315 8b89 bf6f c43f 1bcd 58f9 43a7 b83f
00000430: 5a59 0b35 473a c2bf 4447 c621 6e3d b23f
00000440: 91f8 9f3f 7c74 b8bf 4ea4 018d 8c5f a63f
00000450: da1f 254b 95b9 743f c0ab 3c0c 7591 b33f
00000460: e9cb 6f63 c93a afbf f414 95f2 3741 c5bf
00000470: 77ab 76d6 e3b0 babf 72ed b046 7982 c53f
00000480: 188e ce85 e730 afbf db00 470c 256f 8f3f
00000490: 129a 08eb c7ac c5bf 8646 989c f273 85bf
000004a0: 6866 1fc0 4248 a9bf 3edb 4d3b d1d3 613f
000004b0: 0004 9cfc 196d a83f d82d e66f 247f b13f
000004c0: edad a7c6 53a7 c33f b290 bee1 0ded c5bf
000004d0: 30de c1fd fedc b3bf 7bbd 2e55 305d bf3f
000004e0: 7ccb 64cc 98bb b9bf 9989 25e3 9235 b1bf
000004f0: 8832 62c1 e190 b3bf b68b 3afa 542d bb3f
00000500: be66 5f6d 12d7 c63f 7b2a 556c d0c7 bfbf
00000510: 10d4 a6ec 4147 c63f 553e 8a27 4298 b6bf
00000520: 7b46 8a60 5d92 c53f 473f f443 d18a bfbf
00000530: f827 019c 3aa0 c23f 1029 c7f8 5a87 c43f
00000540: 4ffe 7b7f a4c1 8e3f a20f 736f bf99 b3bf
00000550: 47b9 9bb4 f481 c33f 8a13 659e 662f 97bf
00000560: 0e3a c35b 32d8 c4bf fe5b 991f 6224 c3bf
00000570: 7caf 0962 481e 923f 6714 a217 6028 c7bf
00000580: 030f fc2f 7b6f 833f 8edb f111 1a30 b3bf
00000590: 89b0 735b b6d6 c2bf 1d03 4aba 15cf a8bf
000005a0: f3ec 1155 0c92 a2bf 2527 a0ff aa2a c2bf
000005b0: d0b6 dbf3 55a3 a43f a371 3bb1 0ea3 86bf
000005c0: c00a 9e1d ddae 8bbf 306a 52f0 88ad a0bf
000005d0: 599a a627 6f0d c7bf 0e09 bae5 9c32 bf3f
000005e0: 9576 c0be 1321 a53f 800f 7291 0a36 c4bf
000005f0: 9004 7b09 89f5 97bf 803c 93df 63b6 c03f
00000600: 9be5 617e e6d3 b03f 750e 24ac 2bc6 bcbf
00000610: f733 48d9 3a60 bcbf 938e 797d 3fcc c43f
00000620: 5659 bc65 d763 91bf f6f0 3dd9 9720 98bf
00000630: 9fa3 cff2 8511 ac3f 7b43 c075 df8d b2bf
00000640: 7aa4 f46b 8be4 a93f 7a9c 597e 6a32 c5bf
00000650: ff92 c820 9983 bd3f 364c 50e8 64d6 a43f
00000660: 5f42 7afa b9d5 c6bf 661c 206f 25e6 933f
00000670: aed7 0845 9ddc bc3f d428 2411 4909 c5bf
00000680: 1df9 aee1 9fc2 85bf 365e a298 be7d b83f
00000690: d636 2aca 6c70 b3bf 94af 5f1b 827c 8c3f
000006a0: 0c3e 1093 ae64 93bf 8e3f 51c0 690a babf
000006b0: 4205 ae66 e7da 81bf cde1 9fd1 d8c8 be3f
000006c0: 3133 15c3 478e c1bf 3caf f205 3410 813f
000006d0: 0185 b350 8c73 c43f 23b7 1cf3 c906 88bf
000006e0: e3a8 0f78 b9b3 c1bf 7c2d f612 f86c c33f
000006f0: 6411 9a29 8f5f 99bf 80e0 3ddf 75a3 c2bf
00000700: c73c 2a38 7408 aabf 1182 161c 242a c03f
00000710: cc0a 49a2 8620 40bf 9bf0 6eba b989 c7bf
00000720: 786c 6227 b980 98bf 859e 9ee0 e85e bf3f
00000730: 9536 3b10 6bbf b33f 9f5f 371d 4731 c5bf
00000740: 94b0 830b 0d42 c33f b47f ba30 8652 c4bf
00000750: 4607 63e6 483b ba3f 8c41 4b20 cd84 b13f
00000760: 4f67 76cc 2bb0 c3bf 38dd 80a4 3b3f c23f
00000770: 3781 ba47 a9bc b2bf 91c9 cfa3 ba1d a5bf
00000780: cb15 5497 e907 b8bf 25ba 22e7 ba58 c4bf
00000790: b978 8957 63ae c0bf bffa f0c0 13b7 a23f
000007a0: 2bca fb75 7038 c13f 25a1 e64c 144b bfbf
000007b0: b92a a057 e2ae c5bf bb3b 1adf 76b1 c2bf
000007c0: 0d39 c489 770f a53f 262e 329f 7856 bc3f
000007d0: 6266 3be5 db44 c43f 616a 698c eebf c23f
000007e0: 99ec 7934 f564 c43f 4efd a4ec ed6c b3bf
000007f0: 39cf 7624 6c80 adbf e866 0c72 b504 b5bf
0.022768082254579377 -0.02026720853480684 -0.11111119067722877 0.09526409628141982 0.08194745266317446 -0.018067366964740733 0.13874444714544887 -0.11579647111481897
-0.05020421207279752 -0.11263742898726027 -0.002854541383888458 -0.07722732774130857 0.08924406782187523 -0.014652510293270738 0.17055728104973258 0.1680952022341558
-0.16089514810234098 -0.049176607751075574 0.1506941605620008 -0.10658853479114161 -0.16480832765370015 0.13255557686436245 0.1339590260121157 0.15484545735731448
0.01906161518948733 -0.14263221363064935 0.05226461219721049 -0.0036067681910250645 0.06153624860014331 0.13142631426117843 -0.1288847665084774 -0.07618061035651504
-0.024414669174014893 -0.11648978158621709 -0.14964917332005553 0.0627715225190163 -0.08296230003272935 -0.04392342370238774 -0.09870981707543848 0.16608609387669965
-0.14934299215187943 -0.0889546808097581 -0.11848504396981899 -0.0015612304095641576 0.11258862757863693 0.13632298437126142 -0.12479734261017376 0.14545290411347525
0.053217456152505206 0.09037144810141762 -0.16355350865973878 -0.17854172499551357 0.10905552528761582 -0.06470317760957908 -0.16776324273126494 0.18627053604439586
-0.16071362906883993 0.18003197627626955 0.056425117844994266 0.09861707589339205 -0.06877731721295567 0.06696434110045842 0.10441202861064759 0.09172456857513386
0.14998023204424657 0.08025832835976729 0.008533895564168751 -0.1422822381609465 0.06484929070884528 -0.12199360298508317 -0.12091935703734963 0.10921323066382288
-0.04315702522727111 0.04078689692828916 -0.04342095768139702 -0.06382676663919257 0.14426289259577915 -0.1153499565673862 0.10336006612647772 0.00586085463636466
-0.05137360313619974 0.1469668505991478 -0.04617216140804128 0.16648689784821918 -0.16007786088986198 0.14305213253889518 0.11369370964344064 0.08581973877054691
-0.15633481625325513 -0.0387031676595714 0.1396948576807647 -0.07550320295140873 -0.1414085666272453 -0.17210903826373652 -0.17727352815828445 0.1245928063408006
-0.11329690042774351 -0.16587568946560058 0.14001621557632743 -0.08108584951369412 -0.021400921942483487 -0.14306025946913412 0.01420612499312486 0.16416499134919013
-0.09173196875055649 0.01803434365792996 0.030895221237523314 0.1634788743767776 -0.14317696604434754 0.11678988671336052 -0.08195678936108823 0.011002335924384612
-0.042584096900671886 0.1633076134302931 0.047109314023703754 0.08090959886143431 0.08822283046369797 -0.012303942475245471 -0.04876525502630989 0.15973279621945535
-0.1327095272056694 -0.04364284101850871 0.036250550293860845 0.16853005616142705 0.134222096399984 -0.06661243908804486 0.1530981935102019 0.029598284990387573
-0.08335496442283528 -0.008776161833020464 0.17056211776293242 -0.02798181547166461 0.15966028419477016 0.09630226934023194 -0.1424035080915001 0.07124985050748217
-0.09552742532102544 0.043697731220910016 0.005059798410293548 0.0764382510066488 -0.06099538172556846 -0.16605281205026012 -0.1042616270630513 0.16804424239840504
-0.060919985851139724 0.015348710477042385 -0.16933535553216977 -0.010475058940787162 -0.04937943072554846 0.0021761976772113603 0.047707378469574735 0.06834628803169751
0.15354392242384965 -0.1712968208568149 -0.07759088225599764 0.12251569823887636 -0.10051875104981706 -0.06722372098514597 -0.07642947169569869 0.10616046055888159
0.17843847599470125 -0.12414267201271827 0.17404960685021864 -0.088260779050182 0.16852919782518314 -0.1232119360831777 0.14551479928405775 0.16038071772920448
0.015017781391633593 -0.07656475516256347 0.15240343874706694 -0.022641757409718667 -0.16284780006977012 -0.1495478300373349 0.0176936445081277 -0.18091965822182773
0.00948997726619139 -0.07495272577385334 -0.14717750039506353 -0.048454932203645586 -0.03627050913288512 -0.14192712289541834 0.04030865289483432 -0.011053194793412774
-0.013517119852399673 -0.032573966346906125 -0.1800974792106043 0.12186604126512554 0.0412679834700899 -0.1578992090400071 -0.023397580341001645 0.13056610504870392
0.06573334298618365 -0.11239884331376422 -0.11084335140931488 0.16248315455151338 -0.016982427200752902 -0.0235618330329865 0.05482119168284005 -0.07247730850964544
0.05057178204362685 -0.16560107392726647 0.11528927851083991 0.0406981977067961 -0.17839741449690202 0.019432625682409464 0.11274130759633635 -0.1643458684632778
-0.010625123095334527 0.0956687090532505 -0.07593421874681935 0.013909355602627994 -0.01893875858882947 -0.10172139115570486 -0.008718307324445566 0.12025218122278787
-0.13715455079582164 0.008331686431425227 0.15977624836435925 -0.011731698733992218 -0.13829725611078122 0.15176297117100634 -0.024778592027830185 -0.14561341667627303
-0.050845748764112346 0.12628604289513182 -0.0004921586410734035 -0.18389054873648977 -0.023928540257298597 0.1225419567477904 0.07713956018707287 -0.16556633879258428
0.1504532152388306 -0.158768438142031 0.10246711373022518 0.06843263662745452 -0.1538138149597281 0.1425547173728121 -0.07319124222931782 -0.041242439743558575
-0.09387073463957234 -0.1589578274337821 -0.13032190107600686 0.036553017904670686 0.13453489075580313 -0.12223936917746821 -0.16939954069706234 -0.1460407819144772
0.0411336284324638 0.11069444548245908 0.15835140889139426 0.14648229461711806 0.15933098852460573 -0.07588088061765072 -0.057620410395797746 -0.08210310015092726

fc1.bias f8 [16]
00000000: 5ec9 58a9 1462 aebf 719b cc86 d115 a2bf
00000010: 0600 ec6f e168 bdbf ec00 7e8c 4cfc c33f
00000020: 022f e219 6eb5 bf3f b02a 8ed9 b13d b5bf
00000030: b154 96d6 0ffa abbf ab5d 3536 86de b9bf
00000040: b3fb 8656 281b 9abf ca11 f59b 37ac ae3f
00000050: 6462 295a a277 8b3f 648f 7aa3 24f9 9f3f
00000060: e4e0 c6c6 3ce5 b33f 79a4 339f 1c71 c5bf
00000070: a313 91b1 2e2f bbbf 03fb c544 73c9 c1bf
-0.05934204642507511 -0.03532271166323298 -0.11488160116641674 0.1561370550152853 0.12386215335771669 -0.08297263680848732 -0.05464219564888973 -0.10105170081566565
-0.025494222909170094 0.05990766314292591 0.013411777855410985 0.031223843076659277 0.07771663525534539 -0.1675143983223142 -0.10618869624256759 -0.13896027429651533

fc2.weight f8 [18, 16]
00000000: b745 61c4 2912 c03f 7ffb 51b4 6ed8 8abf
00000010: 0f91 54d5 49ed c43f 2ebe d9d3 dcb7 c13f
00000020: 6ff3 e689 8434 983f fe87 ccbb 803e d03f
00000030: 1b8c dfd1 3d6b c2bf d565 b649 eaed c0bf
00000040: ffea 2190 5a7c c53f c230 51da 862e a23f
00000050: 7a13 0f39 c95a b33f 3b7b 81cb af28 c5bf
00000060: a9de a25b 8051 b8bf b203 fc5f 5fdc aa3f
00000070: d066 227d e398 c7bf da96 3af1 c2e7 c23f
00000080: f6fd 6c92 c608 c1bf 08d2 1bb4 ded2 b1bf
00000090: d417 55d4 118a c23f b610 2684 5ef1 c13f
000000a0: a973 f962 8f6d 9ebf cfb3 b99e 5670 be3f
000000b0: 8f30 9dd5 85a2 ba3f 4121 6d69 d131 cf3f
000000c0: d1be 3f0b a704 a7bf 7a3b 6850 75d4 b63f
000000d0: 5d4f 6cf0 98c2 a2bf 66e9 ac1e 01a7 c9bf
000000e0: 4644 b9d6 27be cc3f 8997 fb7c 0dbb 993f
000000f0: e233 7d12 f0f6 bebf 3c37 abd8 dff6 9e3f
00000100: ab6a 515b e520 cf3f 23b4 e5af 5148 cd3f
00000110: 0bce 3d31 ba3e c4bf e6d5 3231 81b8 8ebf
00000120: 9986 68b8 c521 c03f 951e bd29 6853 a7bf
00000130: 4416 b19e de3d bb3f 16e1 be50 cd76 c6bf
00000140: 02ba fc4d 4844 b5bf 51a2 b527 e4f5 cc3f
00000150: 0554 db99 da44 c7bf 29ed f96d eb70 c9bf
00000160: bb96 b5a2 5632 cabf f4e1 9918 310a b6bf
00000170: 6ea1 bb3f 2d36 c03f c798 fbd7 b5b9 b43f
00000180: c922 d989 dcf6 a0bf 93d5 3674 7f26 c33f
00000190: 7788 7d98 8ddf b93f fd47 6e58 8b39 cabf
000001a0: 99c9 a254 5b6d c8bf cd4c 7dbe bc3a a0bf
000001b0: 6a38 8d6c 28d5 cfbf 7de4 8d8d 6ff0 8d3f
000001c0: 1f25 ce47 0dc3 a93f 1242 7fb4 7fc6 c43f
000001d0: ed58 fc4e b10a b43f 8734 0c5b 71cf c5bf
000001e0: fd53 6fbf 083d c83f 9961 54a8 f605 b73f
000001f0: ddea 6d97 3899 cc3f c8e6 4314 7ea7 c4bf
00000200: 17e2 9313 e778 cebf 9959 8a5d bd91 c43f
00000210: c6e9 908d 73a3 bb3f c143 845a fcee c33f
00000220: 5c52 f2e7 cd7b a6bf 087b 7ca6 991a b43f
00000230: f380 b22a 2686 ce3f cd5f a80d 272c b7bf
00000240: 356a dea8 e593 c83f bab8 260d 159e 9cbf
00000250: 6337 6675 94bb cebf cfb7 eb45 8c46 cb3f
00000260: 161d 3508 6810 ca3f a01a 1b08 7f59 c93f
00000270: 2ca8 498a 729f b53f 2b36 76bb 3f35 afbf
00000280: 61fc fb30 21ed 97bf 4b07 70cf df8c bc3f
00000290: 95f5 9cab f587 ce3f 1582 2002 3837 acbf
000002a0: 196d c303 f24e b63f 5769 8664 bae3 9dbf
000002b0: 9a10 45c2 57dd ad3f ec35 f180 3bc5 b0bf
000002c0: 859e 5a07 c226 b13f 1a5e 7ebf 9327 cebf
000002d0: 684b f0c1 0b66 b2bf 0cc3 c888 af37 ab3f
000002e0: 14df 5171 5006 ce3f 2e73 55e4 61f4 b3bf
000002f0: 759a 1716 3331 c8bf 971d 4ea6 6480 be3f
00000300: 1fe2 1dba 255e c93f 6c97 6634 f450 afbf
00000310: 97c8 94bd b439 cdbf daa3 14b1 d5f7 b53f
00000320: c9b3 a291 8466 6cbf 98a0 f787 8482 aabf
00000330: b618 972b 6f2e b63f 2669 a98f 7ee0 c8bf
00000340: 97b7 3dbe 823b cd3f 55f9 bac7 1cc9 933f
00000350: f61d d6f6 1b10 953f 3734 06a6 9b1a c73f
00000360: a0e1 68d4 517f cebf afc9 1266 6592 9fbf
00000370: 0770 54d7 c768 b43f f6c3 ceab 15d3 c03f
00000380: 2f40 721e 8c2c ccbf b75a cd68 7414 8fbf
00000390: 5fc1 e293 7001 c7bf deea 1e0a a3f7 a13f
000003a0: 08a3 02e8 2edb 7f3f 3ee2 9ab1 2a56 af3f
000003b0: 7af3 e7a2 f183 cdbf 5542 1b51 3c36 b4bf
000003c0: 9627 85b7 f8f6 b13f ae4a fba8 317e cb3f
000003d0: 9637 2e1f 0c4e a0bf b94e 6961 c84c 9fbf
000003e0: 07dc 7d2a 0638 c93f 567b 62c1 d931 c7bf
000003f0: 34c2 2038 8100 a8bf 77c3 6392 e09c cabf
00000400: ef72 4f18 6b2d cd3f 1d40 36ff 47cc c53f
00000410: 2e61 21b9 05bd c83f e949 56d5 0313 cfbf
00000420: faab af36 0193 c53f 8457 40c3 2aae a3bf
00000430: 81ce e0fb 80f2 bb3f 29e2 42a9 cf4e 81bf
00000440: 1ccb c50e 1573 cc3f 1f27 aac8 719d aabf
00000450: 1435 c91d 8695 8c3f ef74 4ebb 2c71 c4bf
00000460: 3296 b5ff e655 b2bf 8d70 a5c0 034f c5bf
00000470: 8d2c 7108 b33e c4bf 6c34 0232 08c1 8abf
00000480: 02e3 3380 3488 c73f 7ba8 ce5b 4c63 ba3f
00000490: 5297 b3e1 2412 c2bf e5f1 8798 d1fb c2bf
000004a0: 2b9e ef36 60d8 cbbf be0c 1ca2 ef13 c9bf
000004b0: 2735 4152 aeb4 803f 778d 858e 64ce 89bf
000004c0: 988a 0a47 d9bb b63f 5ff8 cdc0 026d cf3f
000004d0: cf0b 395b 5ed8 cabf e13e aafd 262c cb3f
000004e0: d8c1 9c19 e320 b23f 603e 13ad a29f b13f
000004f0: 6919 e7aa 78a3 cebf 444b b4cf e823 813f
00000500: f8a1 7d58 de5e cdbf bc8c 2109 e22f aa3f
00000510: 7408 fd7b 075c c2bf 539c 1521 811e c3bf
00000520: 8e06 58d6 c262 bcbf 7e57 faf3 067f c0bf
00000530: 2917 1ae5 4b65 c6bf c69b c5c5 7cef c63f
00000540: 6e43 bf9a 536b cbbf 1cf2 77c5 630c cebf
00000550: e035 63a4 b83a 803f 460c dc71 4dcd 933f
00000560: 3c76 6208 9f51 b1bf c1e1 046f 68cb c03f
00000570: d98e f277 42e9 c03f 6117 18cf 4160 93bf
00000580: d0bf ad0f 661d c6bf 6dca 2f1f 4072 c63f
00000590: 980c eaa2 0729 c73f f900 8094 898f b63f
000005a0: 3a64 3f92 8e8e a83f de5b 7173 b237 7a3f
000005b0: c100 5ec4 bd6c c13f eb8b 920c 21ae ccbf
000005c0: eb9d 0bff 6f22 c03f 1c31 e627 6f07 c73f
000005d0: c4a3 e817 0940 ac3f af90 c71d 448f ca3f
000005e0: 3766 1207 4edf c5bf 2daa 7e59 b75a cc3f
000005f0: c73e 10bb a5a5 c6bf bd42 432e d1d0 c6bf
00000600: 1f00 b12f b90a c63f 2e1f 2fcb 7e70 a6bf
00000610: f6ca 4d34 2392 b23f d9dc 5431 4902 a9bf
00000620: 847c b7d9 1b9a ccbf e292 771d e1da ce3f
00000630: 56eb a7d8 d0a0 bf3f 3fbb 918b 0271 b3bf
00000640: a07c 045b 8a31 c53f 80b3 f8ff f920 7cbf
00000650: af1f f257 c79c a4bf fd07 8eb6 b451 87bf
00000660: 10c6 83f7 32d7 c1bf a014 05f1 368a b23f
00000670: b19c ce5f 3bdd bcbf ba39 7776 1485 acbf
00000680: b9c3 dbcc f18a b73f a325 c9ae 6546 b43f
00000690: 8346 7510 bcde cc3f b5f0 d17f b1ca 713f
000006a0: f5ec f152 7c14 c6bf 7816 488f b30b c2bf
000006b0: cc21 0234 30a7 ce3f f67f eeac 2480 b4bf
000006c0: fcc8 8bfa da63 983f 1fb7 c4ff c6fa c8bf
000006d0: ed13 0cc7 d9fc 8c3f df37 d94c 9e90 853f
000006e0: 5278 51e0 e236 c13f b4ea 6a88 35a8 c23f
000006f0: ae43 55e6 e202 cdbf c009 948f b820 b13f
00000700: a9c7 e2bf b223 7cbf dc02 5fb5 ea89 cdbf
00000710: dd40 9603 1c2b a6bf 653f 9974 de85 99bf
00000720: f5fb ce4b 56ae cd3f bde9 b0a8 4a30 b4bf
00000730: 2c62 42ef de6b 91bf f71e ccab 9704 cebf
00000740: 1c1b 9b36 1806 ad3f 2ebd 2b5d a831 c4bf
00000750: 2a99 d309 bd1f cc3f 3032 a0af de35 c2bf
00000760: 0cea b16b 7efa c3bf b34f fe98 3ae6 c43f
00000770: 8760 ebd2 26cd c33f 6a52 0189 8d81 6c3f
00000780: 5b18 15e1 6805 bebf eb81 114a a21e a1bf
00000790: 5f78 87cb 8862 cf3f 5ea5 aba9 7fa0 6e3f
000007a0: 27e0 aeee 8933 9ebf 5eb8 9a27 3f9f ac3f
000007b0: 7367 5f69 321b bfbf d1f8 4622 50b2 b33f
000007c0: 86d4 a79e bb03 c1bf 0635 0c16 e709 cdbf
000007d0: 6e56 b519 58ae cd3f cd61 b537 9859 bf3f
000007e0: 5819 f730 c3b0 cebf 7f25 9b6c 1211 c8bf
000007f0: 7022 d287 f789 c43f a070 718e 2018 ce3f
0.12555429543367122 -0.013108124616562964 0.16349146763344222 0.1384235414911798 0.02363783923805179 0.2538148721670267 -0.1438977503558768 -0.1322605953144335
0.16785747564048134 0.035511221075098756 0.07560403483428316 -0.16530415951543795 -0.09499361264431151 0.0524625591915603 -0.1843532906539651 0.14769779947999134
-0.13308031224913436 -0.06962386986908353 0.14483855121414868 0.14017850353787303 -0.029714813629073387 0.11890164733058771 0.10404240098177041 0.2437078251625824
-0.044957370875520326 0.08917935574593897 -0.03664091048099636 -0.20040906904052774 0.22455308899455612 0.02512761187872273 -0.12095547152894384 0.030238626098074692
0.24319140395058034 0.22876950348600741 -0.1581642857014319 -0.015000352205201527 0.12603065017997464 -0.04555821904665184 0.106412805312254 -0.1755005497232182
-0.08307315734848689 0.2262540048498232 -0.1817887545827547 -0.19875853414473824 -0.204661206672588 -0.08609301424610988 0.12665334331473893 0.08095871470468118
-0.03313340361325385 0.14961236166497524 0.10106739972028032 -0.20488111322316618 -0.19083730347263098 -0.03169812989531238 -0.2486925630605044 0.014618751056092666
0.050316252723016534 0.16230770409903578 0.07828815630304904 -0.17039315171897249 0.18936261508375188 0.08993474588021967 0.22342593568813288 -0.16136146535409623
-0.2380646558374486 0.16069762294200698 0.10796282011225519 0.15573076648482068 -0.04391330200556773 0.07853088678937692 0.23846890530422335 -0.09051746447983007
0.1920134615473487 -0.027946785857857682 -0.2400994847525296 0.21309045232868448 0.20362568283801669 0.19804370780749014 0.0844642245880613 -0.060953132279888265
-0.023365515341535196 0.11152457060236746 0.23852415923640238 -0.05510878587688609 0.08714211074714164 -0.029189026246606655 0.05832933660943347 -0.06550952814105643
0.06699764899769363 -0.23558279848360614 -0.07186959729032838 0.05315922302941631 0.23456769498056274 -0.07794772934489622 -0.18900145128937465 0.1191466241854101
0.1981856497548202 -0.06116450442941254 -0.22832354790586315 0.0858129079175706 -0.0034668530689345484 -0.05177702102429399 0.08664603056158424 -0.19435102476820382
0.22837862290492403 0.01932187050874153 0.020569264355371396 0.180499511782189 -0.23826048728529958 -0.0308318942595151 0.07972382552219424 0.1314417923836399
-0.22010947691569657 -0.015175733040149948 -0.1797314378832295 0.03509244440598079 0.007777388789840918 0.061204275303172725 -0.23058910803220184 -0.07895256977213568
0.07017473679039052 0.21478863478713123 -0.03184545403119825 -0.030566340394513534 0.19702221941744844 -0.18120881979572329 -0.046878851033742924 -0.20791251323637613
0.22794855772999464 0.17029666863936735 0.19326850452012806 -0.2427677909550561 0.16854872865891918 -0.03843816407622483 0.10916906499260827 -0.008451101639694052
0.22226203175849768 -0.05198245596427697 0.01395706919097476 -0.159703818758238 -0.07162326567557711 -0.1664738360076438 -0.15816343223773224 -0.013063491846219764
0.18384414920708286 0.10307767144573347 -0.14117871304113777 -0.14830989787868912 -0.2175407665483687 -0.19592090049272842 0.008157121548857461 -0.012600694274346165
0.08880384430316679 0.24551424421582888 -0.20972804502716122 0.2122849215124836 0.07081431746769995 0.06884209371059447 -0.23936374993190704 0.008369273031836884
-0.2294576580127481 0.05114656793082292 -0.14343350938912958 -0.14936842074823406 -0.11088197453502799 -0.12887656128867414 -0.1749663227712344 0.17918357521850065
-0.21421284729015205 -0.23475310461061916 0.007924501911840076 0.019337854456363844 -0.06765169100477747 0.1312075178227712 0.13211851937113897 -0.018921879067441142
-0.17277217641412657 0.17536164782321198 0.1809396310310134 0.08812770724762577 0.04796262297868066 0.006400773118989426 0.13613102043382777 -0.22406399835480725
0.12605094865214936 0.17991437385752185 0.05517605225424618 0.20749713377074872 -0.17087722153955706 0.2215184390054942 -0.1769301570316115 -0.17824759253428182
0.17220225170785938 -0.04382702093385969 0.07254238154363776 -0.04884556510153865 -0.22345302706432701 0.24105466784307966 0.123547604460254 -0.07594314486935348
0.16557435459342162 -0.006867386400284725 -0.04025862644726829 -0.01138631040680948 -0.13937985501938543 0.07242148765824874 -0.11275073136367798 -0.05570281931032946
0.09196387530734186 0.07919917599897146 0.22554732135408892 0.0043436940733238465 -0.17250017213868998 -0.14098209854289556 0.2394771818110385 -0.08008031103099697
0.023818418066135813 -0.1951531170720324 0.014154149424493634 0.010529743881445284 0.1344874949745099 0.1457583347417618 -0.22665058371287955 0.06690553193406057
-0.0068699819950541 -0.2307713876343972 -0.043297648847443894 -0.024924732081046303 0.23188284589375 -0.07886187189516299 -0.017013057091931724 -0.23451515091459615
0.05668712297988618 -0.15776543187483 0.21971858005344674 -0.14226897788502546 -0.15608196505111527 0.16327602835064922 0.15469823168564664 0.0034797443732180093
-0.11727004523444988 -0.03343684343485961 0.2451945298952891 0.003738641110761761 -0.029493479912815836 0.05590245588733532 -0.12150874207091338 0.07693959080549752
-0.1329264187512857 -0.22686470581576418 0.23188306098261385 0.12246085510321976 -0.23976936236267465 -0.18802099516896573 0.1604604161441503 0.23511130290251447

fc2.bias f8 [18]
00000000: eb7d e644 13fd 83bf 8743 fb86 b5c9 c1bf
00000010: fb3e 6bd9 9598 c9bf e772 a2ba 66f4 cebf
00000020: cc1b b6ac 327f cf3f 625f 4085 8f60 c23f
00000030: cc5c 01ad 7cd4 b23f d660 86f3 f98e adbf
00000040: 3473 6ade 0209 b33f ad77 2efb 84f8 85bf
00000050: 6bcf 9d47 d5c3 b4bf 1b7b a9c2 d88b c43f
00000060: 8c53 ce01 7485 b63f d4e3 27dc 8bd1 c13f
00000070: f8d3 84c2 5898 b0bf a615 0b4e 0216 a53f
00000080: 56e7 7ed7 9fdd c9bf 4796 44a0 c388 c1bf
-0.009760046520397267 -0.13896817294019234 -0.19996903530272178 -0.24183353531852633 0.24606927331134754 0.14357179647845003 0.07355479453814268 -0.0577314481517434
0.07435625009607066 -0.01072791949792048 -0.08111317633102792 0.16051778321249163 0.08797383350458982 0.13920734643741517 -0.06482462643619147 0.041183540369768054
-0.20207593939067675 -0.13698621106702744

fc3.weight f8 [20, 18]
00000000: ff71 9633 5b67 c7bf 7ba3 e53c 4546 ccbf
00000010: 0e6c 4125 fb4c c9bf b647 cc52 a54d 983f
00000020: 143c 16ae b0be c4bf 8ab4 e073 8471 acbf
00000030: 5d2e 5a6b 1891 983f 20ec 49b3 2ecf b03f
00000040: 0f77 94af 4e67 c8bf 7d35 71a3 0735 a6bf
00000050: b4fe 3723 520e c83f d276 e546 d362 b33f
00000060: 5c41 7bc5 53ca c3bf 97b0 c502 c3ec b43f
00000070: 4013 a903 2d50 c9bf 3e32 1ea9 ba64 c03f
00000080: d811 6187 93dc c7bf d3a1 4df6 e4c5 c2bf
00000090: 34f7 307f c1a7 afbf 41b1 41fa f22e c7bf
000000a0: ef2f 78c6 9b10 b4bf 678d 2eb2 3f46 a93f
000000b0: 2c03 5ced ec40 c63f bade 06ed 8618 c73f
000000c0: 5f95 5320 9a5e b6bf a40e d19b 414d b53f
000000d0: b9bb b2d4 3255 c23f e204 0d04 048d c03f
000000e0: f5d0 6484 7bd4 c5bf 4ad9 c761 55c9 953f
000000f0: 7e87 79ca d39f bd3f 21c9 d772 d0fc 88bf
00000100: 1043 8f35 9751 c3bf 9ea5 5dd8 4c90 a83f
00000110: 250e 02c9 d8e5 b03f 8325 db45 ad52 a53f
00000120: 2882 075a 8c03 b0bf 873d 9107 6165 bf3f
00000130: 32b9 3d24 ccae 91bf 0f58 41fc 5fb7 ab3f
00000140: e552 72cb 9ebc c13f d054 6184 ce36 bb3f
00000150: 9312 67c1 3f4b cb3f 430b dc78 d0d0 a13f
00000160: bdb4 1c4e 426a c53f 4aef f4b9 cf3c c23f
00000170: b2d4 eb99 0d84 b4bf a31e 8cda 02e4 be3f
00000180: 0d02 5274 c237 c83f 84dd aabb eca7 b73f
00000190: e8f2 f547 e98c c03f 5a23 abb1 7d84 a1bf
000001a0: 01d9 b63d c770 c83f 1134 adce 7309 be3f
000001b0: 40ab 215b 9b44 b3bf a0f0 7fe3 f9da a93f
000001c0: 1b0e 8a8f 9358 cb3f 62ab 4911 1cd3 c23f
000001d0: b749 640f b378 a1bf be23 e64d 164e c6bf
000001e0: 69e5 d885 123c c63f dc01 bbbe 7ad2 c73f
000001f0: 812d d766 4fb4 c63f b434 c685 785e 713f
00000200: 13d2 c01f 04d0 aebf 8b23 8a03 8723 aabf
00000210: 7930 400c 0809 c13f 2846 1a5b f0b2 c7bf
00000220: 53f6 396b adf9 c93f e34d 5281 25c1 bdbf
00000230: a583 ad65 d37a 743f 136e e643 ba5b b83f
00000240: 93d7 aa84 5216 b6bf cc2b 0496 51e5 c6bf
00000250: 62a3 3fd8 3b0c c5bf d31e 50db eeb3 ca3f
00000260: 3a56 0380 1923 b8bf 6676 8dc0 2925 c33f
00000270: 732d b240 cce5 b4bf f0b3 fbfd d71c c3bf
00000280: 61da 3742 ad6d c83f 8c0d 0719 7615 c33f
00000290: ffed 06b0 1657 c63f 029e 149c 2e1e ba3f
000002a0: f503 5ab5 d459 a93f f79b 18ca f8c9 b8bf
000002b0: 4804 ea14 f3d3 bcbf e44b 743b e20d b33f
000002c0: c80d 4cd0 9e17 c2bf 4937 5112 c92a b5bf
000002d0: 315c ddb3 34ba afbf e015 2f45 8f40 bfbf
000002e0: fbac 50d0 06e4 be3f 07f1 41d7 2e7e cdbf
000002f0: 8d6c 0c15 4838 b8bf 31b4 3047 ed95 b6bf
00000300: f944 733b e44b c53f c374 f6d4 3072 cc3f
00000310: 2e18 3ceb f87f c83f 3684 91d0 0a79 c13f
00000320: 8564 6a95 e9d0 bebf 4655 10c4 17fe ba3f
00000330: 4ed4 021a d3b6 c23f 6266 4054 a81b c1bf
00000340: 15e7 6e2a bd4a 713f 9d13 a5c2 7be8 c6bf
00000350: 5253 bd2d fa72 cdbf 4440 c4c8 97ad a1bf
00000360: 32f7 5cc7 79ea 94bf a4c9 7a2c 8d4a cbbf
00000370: 23d9 c82e 65e0 cb3f a5ca 5ba4 8776 c43f
00000380: 35d0 62fc 3fdd c2bf fa17 99eb 657a b4bf
00000390: 037e 20fa 9509 cebf 22d1 6630 88ab c5bf
000003a0: 099b ba5c 8207 cabf 4aee 93f8 731a ba3f
000003b0: cade 91f6 4bc4 c6bf ed59 6ab7 1947 cb3f
000003c0: 19ef 8efa 344d c73f 452c 3905 0243 c9bf
000003d0: 5d96 c537 13ea c03f 1234 f273 9653 cbbf
000003e0: f7ed d2f0 1aa7 b43f 6354 8d04 bc4d bbbf
000003f0: ac73 1208 c43a cebf 93b7 2e3f e486 adbf
00000400: 776c af4a 3c23 b5bf 5308 6a05 7d3d b6bf
00000410: 6aad 274f 473e afbf 7c72 072b 056f aabf
00000420: 461b bcbb 5ee5 c63f 7678 4830 23a3 ccbf
00000430: 2bf4 85f6 6560 bcbf 8a09 24d3 4437 9fbf
00000440: 9146 0e8f 635d babf b47c 1538 e252 c7bf
00000450: f63a c61e 7bd9 b43f d567 46b3 6158 983f
00000460: 2b36 c465 b4ce c33f ce29 e290 32e2 b63f
00000470: 9eb4 ba83 d70b 94bf 3d5c ff8f 49b5 cc3f
00000480: ddcf 0add e73a c6bf ed02 8ead e00f 78bf
00000490: 05a5 944e 2fe8 c63f e2f6 ab77 17dd c8bf
000004a0: a8b7 86f1 6298 93bf 363d 7642 91b5 b0bf
000004b0: db43 e84b ae1f b13f 9ac6 9047 bab9 cb3f
000004c0: 1f68 a9e6 9687 a1bf 9274 c4d2 2114 c13f
000004d0: a9ad 9a51 9863 c03f 7a5c 27f0 34ad 92bf
000004e0: 8573 1397 028a cb3f 8147 b62c a510 a33f
000004f0: 9494 b612 d4ce be3f 8c12 9e32 a327 903f
00000500: f171 ed00 9a41 c63f b9db 9545 fb4d ae3f
00000510: 66ac c1a8 b735 aabf ddcf 3b6e bf2f c33f
00000520: 9d3b c315 6f84 c5bf 403b 5332 a32f c2bf
00000530: 1e73 4322 c87d b83f bcaa 058c 98c5 a5bf
00000540: 7100 feb8 6228 c83f 4179 aa00 f8a2 aabf
00000550: 172d a378 7b24 8ebf 98f3 310a 6e92 c7bf
00000560: afd8 32b6 3f74 b03f 8708 ff47 fedf ca3f
00000570: 8026 80a4 2dc5 a63f 3aa5 5203 6e86 8abf
00000580: f8fd 66e3 864e ca3f 4ff0 7e64 ae5c ca3f
00000590: 525c d0eb 24e3 a63f bf44 3f11 5434 b0bf
000005a0: 5535 2516 d5d0 cdbf 55cf 1927 64aa a33f
000005b0: cba4 00c5 ec04 b1bf 3430 86c9 fd1c c63f
000005c0: 82af e7ff 0f55 c1bf cedb 482b f32c ccbf
000005d0: 73a9 3994 b579 c2bf 79e2 23b2 57b0 bf3f
000005e0: 8f63 acfb 8788 ad3f 8ab8 17d8 8c52 c33f
000005f0: 29c1 8f43 8937 ccbf 7fb3 a954 4de3 b2bf
00000600: 7a63 0d22 e590 c8bf 898c 5098 c477 c03f
00000610: 6bf3 8ea0 e54a ca3f fb01 4ae4 b494 bbbf
00000620: 39fc 114c 8594 c1bf 4c01 6c8c ca64 b23f
00000630: a01b a1f4 0089 c03f c232 76dd b169 bcbf
00000640: ab3d 970d 5244 c33f 2658 0aab 27c7 b93f
00000650: 839e ac42 d3d0 863f 9b94 1e2b 4421 c33f
00000660: c96d 4fb7 95c4 bb3f e1fb c32e 4627 ce3f
00000670: 006c 6a44 0859 af3f 2d2f 4788 bfdb 9cbf
00000680: 618a 0122 8004 c3bf f47c 072d 5d2d babf
00000690: 4688 c346 e3d8 c5bf 529f 221b b53c c93f
000006a0: 163c 4dd6 f50d c13f 1bf0 b492 c383 a23f
000006b0: d50a 5c21 f462 a8bf cd05 bf89 7c5b 7b3f
000006c0: 1bb3 bb95 2da7 9d3f ca93 cda3 69b5 ae3f
000006d0: aa16 d893 7fee c4bf 42bb 9fcb 4e77 cabf
000006e0: 7afa 54e5 9f7e ca3f c2dc ad6c c4ff 663f
000006f0: ff96 fa3a d9ba b5bf 3cad 0157 4fc6 b2bf
00000700: 4afe 6b40 edde bebf 30fb bc6f d078 c23f
00000710: 02cc b9c4 4079 ba3f 6978 e128 5bc9 c1bf
00000720: e091 3090 7bf7 b8bf e289 bbba 051d b13f
00000730: 7183 cdc7 d30a c1bf c24e b3c2 71f4 8d3f
00000740: a45d 9636 08d8 89bf 90a4 7737 764a 82bf
00000750: d5f8 442e 42b0 c2bf 37b3 e9a5 0ef6 7abf
00000760: 745f f00d 3f92 c33f 5252 390d cf01 b23f
00000770: b5a4 3cac b8db ab3f fcce a1d0 e306 ab3f
00000780: 1649 6c0d 5e48 b63f 0fd1 943e 793f ca3f
00000790: a276 8c40 d8d7 c83f 6052 43b4 39f8 c8bf
000007a0: ab48 52a5 f0b9 c0bf fe14 68df 805e a2bf
000007b0: 0c45 fd0e 5dd2 c73f 9b9e e6be 1bf7 bd3f
000007c0: 9468 47b1 1aad cd3f bb4c aa39 a54c c73f
000007d0: 8d42 e699 509b cabf 8f0d a15e 22bf b63f
000007e0: dd4c d71a 0132 cabf 568b 9917 a3ae 8d3f
000007f0: 3669 db5f bfcf c53f 9652 420e 8dcc c53f
-0.18284168261460818 -0.22089448426711641 -0.19766177481764696 0.023733695200526227 -0.16206940174421958 -0.055553568978532544 0.023990994980108805 0.06566135289351438
-0.19065269063224163 -0.04337333555359189 0.1879370376554924 0.07572670441501408 -0.15461203711175642 0.08173769776994032 -0.19775927237255964 0.12807400949204067
-0.1864189539939065 -0.14666425730253127 -0.06182675054195244 -0.1811202737766369 -0.07837842555471729 0.04936408090659477 0.17385636892142864 0.1804360062940214
-0.08738101281376974 0.08321008733860907 0.1432250536504094 0.1293034572391099 -0.17054695095578834 0.021275838940675564 0.11572002118330535 -0.012200954918601572
-0.1509274493714874 0.04797592297729668 0.0660071840994126 0.04164639928564908 -0.06255414197904285 0.12264067110776554 -0.01726836177061237 0.05413341478622168
0.13856873449244414 0.106305033988366 0.21323391860473304 0.03479625201545968 0.1673052674681567 0.14248081760330883 -0.08013997085420746 0.12066667400005797
0.18920164756492888 0.09240607816433594 0.1293002702112951 -0.03421395105176002 0.1909417201365571 0.11733173175635182 -0.07526560759440049 0.05049878027054544
0.2136406374812488 0.14706755489472828 -0.034123988751292904 -0.17425802997266077 0.1737082627821949 0.18611082375538401 0.17737762948523186 0.004240484992249428
-0.060180786968349186 -0.051052302534180326 0.1330881175821366 -0.18514828155871155 0.20293205009140766 -0.1162284317709275 0.0049999482824611184 0.09514965207784369
-0.08627811182927152 -0.17887325119985886 -0.1644358449841788 0.20861612042084818 -0.0942855775386641 0.14957162763578252 -0.0816314371060594 -0.14931774045490398
0.19084707005795834 0.14909244749115336 0.17453273387023668 0.10202304182586633 0.04951348031773498 -0.09683184560763879 -0.11260909329031776 0.07443059875031072
-0.1413458363605129 -0.08268410393904192 -0.0619675130425822 -0.12207885207234126 0.12066691003626666 -0.23041329870819302 -0.09460878862266693 -0.08822520244639588
0.1663785257610824 0.22223482512064238 0.19140540586539728 0.13650641616826115 -0.12037525079576213 0.10543964897836586 0.14620436449118518 -0.13365654100271046
0.004221667221764998 -0.1789698315061771 -0.23007132752777665 -0.0345275337768958 -0.02042570380512316 -0.21321263000352275 0.21778549942400457 0.15986724400825839
-0.14737701247725146 -0.07999264718918644 -0.23466753686169292 -0.1692972408615186 -0.20335416343478865 0.10196614092631609 -0.17786550082722946 0.21310731368858118
0.18204366907399885 -0.1973574185852575 0.13214340422853157 -0.21348839436942108 0.08067482356539545 -0.1066548834908914 -0.23616838831085596 -0.05766976615210164
-0.08256890128488857 -0.08687573797399865 -0.06102202264068064 -0.051628266813826124 0.1788748184846673 -0.22372856004307423 -0.11084592121729091 -0.030484271418580934
-0.10298750155041093 -0.1822169088218054 0.0814434957630786 0.023774649207190485 0.15474562615456597 0.08938900029367078 -0.019576423087234056 0.22428245097282398
-0.17367265980794758 -0.005874517105326699 0.17896071755357226 -0.19424718230577925 -0.01913599585684947 -0.06527049896816525 0.06688966134267053 0.21660545820627847
-0.03423759046263818 0.13342688361527572 0.1280393980463093 -0.018238856466123533 0.2151492345500651 0.037236367900859164 0.12034345108857486 0.01577620502895853
0.1738770012406259 0.05918870186263043 -0.051191081380999745 0.14989464647771814 -0.16810406267765368 -0.14207878072053326 0.09566927753935459 -0.04252316197638126
0.18873247177907929 -0.05202460296753709 -0.014718021983205305 -0.18415618417557478 0.06427381704529254 0.20996073260727519 0.04447310097755253 -0.012951716877369724
0.2055214510310035 0.20595340640091073 0.04470172289455178 -0.06329846783707448 -0.2329355581409042 0.0384093568544858 -0.06648139772063925 0.17275974597976218
-0.13540840144503014 -0.22012176145082524 -0.14433927285729062 0.12378452395558694 0.05768227526841151 0.15095673133277315 -0.22044482993033768 -0.07378085438695157
-0.19192184603414458 0.12865502774466034 0.20541067447438918 -0.10773783277000597 -0.13734499182098306 0.07185045173901478 0.12918102211753268 -0.1109877744367607
0.15052247680294548 0.10069511342803192 0.01114049002860829 0.1494527063888754 0.10846839642856944 0.2355735519740554 0.0612261374964973 -0.028182022755387216
-0.1485748449368485 -0.10225469922396596 -0.17068139033568935 0.19716514420474113 0.13323853458356955 0.036161529215377373 -0.047629956314286716 0.006679045178260745
0.02895804621123253 0.05997781872319015 -0.16352839201879493 -0.20676598494125115 0.20698927591179822 0.0028075062195359332 -0.08488233270562871 -0.0733384692591032
-0.12058909247206731 0.14431195693938426 0.10341267397761558 -0.1389574002850538 -0.09752628584153156 0.06684909638310146 -0.13314292198176816 0.01462639689854173
-0.01261907974803373 -0.008931087081651051 -0.1460039831089889 -0.006582314700250439 0.15290058308232413 0.07034010002946303 0.05441071608067586 0.05278694078233845
0.08704173877439234 0.20506206088760634 0.1940870585612418 -0.1950752382459937 -0.13067443916640306 -0.035877253791150907 0.18610728485013117 0.11705182467141599
0.2318452230090925 0.18202653232274266 -0.20786483301755646 0.08885397730141718 -0.2046510106143619 0.014493250043590738 0.17040245228310774 0.1703049010872248

fc3.bias f8 [20]
00000000: 8a44 e7f2 a51d a8bf 8e61 8474 4a71 923f
00000010: e067 06b4 8911 c83f 34d0 ee0a ab86 c13f
00000020: a70b 1d1b b85f ba3f 2bfe 437a f5ec c63f
00000030: 2475 3798 62ac ac3f 0aef 0360 86ea c63f
00000040: 6209 905e 0015 cb3f 382a cd56 c93c babf
00000050: 6c64 2d4c 6a9f 6cbf cbf5 10c7 236f c13f
00000060: 59f8 89cf 492c c8bf 7694 3417 e999 cc3f
00000070: 5e94 8a8d c2d6 a23f e043 fa72 fad2 ba3f
00000080: 7d21 21c5 7c2f 84bf 6532 0f93 8fa8 b8bf
00000090: 403c b0e2 3994 c7bf a631 0f8b 6d3f 9abf
-0.04710119810227649 0.018010295259132607 0.18803521433147719 0.1369222453482749 0.1030230585284203 0.17910641164779526 0.0560026942073171 0.17903213203668883
0.21157841317478715 -0.10249002808738161 -0.00349398385280302 0.13620421619445575 -0.18885157235848984 0.22344697602344227 0.03679473855780978 0.10478177363462704
-0.009856199994957343 -0.09632203426662896 -0.18421100205202556 -0.025632583248624073

fc4.weight f8 [24, 20]
00000000: b132 4efd 322d b9bf b305 078e 39a1 78bf
00000010: 1ed5 a192 8fc9 88bf 3575 6faa 24e7 a03f
00000020: 28e1 d4f4 ee18 b3bf e0bd 5ab5 62b4 bebf
00000030: deb8 3dac de29 c3bf ce1f 1331 2ab5 aa3f
00000040: 19bd 98af e535 bcbf b25a 23dc 8420 c0bf
00000050: c049 25c1 7518 bc3f 05fc b7ee 03d7 c23f
00000060: 04f6 4c7c 538c c8bf d572 8eee 4156 cbbf
00000070: 5dac b7ee 4d31 c2bf b28a 26eb 5e8f a6bf
00000080: 01f6 518f 4bbe 86bf 416b 92b0 7fc3 b6bf
00000090: 7b67 a47c d2b6 a8bf 418b 7730 8e5c b33f
000000a0: 48e2 96b2 874c 84bf 5eb8 1ba4 3f70 b1bf
000000b0: 85d6 10c9 85ce b6bf cc8a ee81 c969 c6bf
000000c0: e9a5 1080 2702 c3bf f285 6b97 ef2f c4bf
000000d0: c3f0 967f 48e1 c9bf fa80 ae33 2a24 c93f
000000e0: 3fb6 f4a1 7c56 bdbf 9ea6 2f9f cb69 a43f
000000f0: 84f8 6446 71c2 833f 3be2 8b29 f216 bebf
00000100: 14e3 b185 a8b5 c73f c407 0c56 62b1 c0bf
00000110: e023 3b0c 250e b4bf 9bc5 afdd 656c ac3f
00000120: e6b2 b613 f85e bf3f 0c3b f3a4 1874 c93f
00000130: 23e8 433d 258e c43f b04d 1db2 8083 993f
00000140: 804d 9cad 0c81 943f 2846 c58e 4471 c33f
00000150: 611d c6ae a7c7 c1bf 9c0e 2f71 e127 ca3f
00000160: 07d5 572f b8de a3bf 317e 34f0 23c3 c3bf
00000170: b82f 71fc ea3a c83f 2cf2 f5a4 53a4 9bbf
00000180: 1619 8e30 6e18 c8bf 8504 00a4 0261 b93f
00000190: 618b dfab 1dbb 9e3f fb10 f90a 0e65 c43f
000001a0: 3e9a 451b 75c6 ca3f aad9 7a06 23ce c43f
000001b0: 2e5f abf5 cbae c43f 512b d4ee 0240 b4bf
000001c0: a969 fc70 a70c c4bf 894b e910 b803 b5bf
000001d0: a105 4e00 be8f 7dbf c1d1 3f44 4b6f c1bf
000001e0: 5ae2 7264 0619 cabf a9da 9c94 1ed2 a33f
000001f0: 6816 6a1e 09dc b4bf c150 29b7 9cfe b83f
00000200: fdd5 55f5 45c4 c23f 8e0f 0414 c640 c13f
00000210: f25d 708a 375b c73f 2ffc d0b4 84c9 b1bf
00000220: bf5b e265 d280 c93f 570c 41a9 c753 c5bf
00000230: d13b f9ce 9e4c aebf 6015 6a79 8ed8 c3bf
00000240: c592 31f5 4c54 7c3f ffbc 83b5 f7e4 b7bf
00000250: 3813 b2bc 6304 aabf c40b d21d 4e69 c0bf
00000260: 1b17 d082 f2f7 c7bf 0186 7ad8 433c c5bf
00000270: 8f5c 91b3 131c c3bf 19c6 3e1b 2e61 b8bf
00000280: 8b3a b09a 03d3 97bf 53c2 e79c a7fa c8bf
00000290: 047e 4cde ccd2 3b3f 52cd d69c 87cd b03f
000002a0: 9b24 7e4b d2b9 c03f 60b2 4136 ee78 c9bf
000002b0: 4425 206e e8be b43f 9575 06aa 0cf9 c73f
000002c0: 983b 6739 d594 c63f 5064 d212 ae7b c3bf
000002d0: a860 2dae 0482 bcbf c98b 6172 4bb1 753f
000002e0: ad4d 4d3a 592e b3bf bb2c b3fb 47ba b83f
000002f0: 3c05 1e65 4a45 c43f 9362 3de0 bfd7 b7bf
00000300: 82d5 6ce8 30d7 b63f 5d70 e73c 94ba cabf
00000310: ee81 78bb d7e5 c5bf c15b d8b5 a5ea afbf
00000320: 5584 2f7d 0128 b53f b767 1c72 3602 bcbf
00000330: f261 ecb0 1301 a43f d1a0 d29c 6001 b73f
00000340: c367 6e82 9572 753f 88f5 2827 ce5f b1bf
00000350: 4c6d e5e7 3b55 c73f c669 fb5d 72df c7bf
00000360: 3b4b e688 a59d c53f 1e16 3d59 cbcc b63f
00000370: 52aa 8d4b bf07 b33f 414a 33b7 e462 c2bf
00000380: 3b8f b2ac 9913 953f 31bb f553 0501 a6bf
00000390: 2bb5 c28c 62a9 ba3f 4b36 de04 800d b13f
000003a0: a693 3979 6de6 c4bf 2d2f c1f7 0446 cb3f
000003b0: 7d8b f171 645e c5bf d9c4 4fa2 4fee a83f
000003c0: 2022 7e72 4a34 513f 22d9 fe9c f318 c53f
000003d0: 0f8a cb7b bf6f 943f 640f e9ed 5f50 73bf
000003e0: f3bb 78f7 d58c a1bf 43a6 0c1b cb78 cbbf
000003f0: 286c c2ed d2be cb3f 6d75 2258 8b1d a1bf
00000400: 6d85 c6d6 861f c3bf 093b d633 a73c a5bf
00000410: cb88 1051 5ea1 b83f eb2d a092 cdf1 b7bf
00000420: c320 d44a 8d75 8ebf 3c2a 5c5c 6cd8 b73f
00000430: b2f9 f2cf 84b7 c23f 2978 3eb8 1cfc c1bf
00000440: bde5 c8f6 6a16 c13f 963e b67c 9c9c b0bf
00000450: f470 8342 948b b33f 29af 3e8a a1aa b63f
00000460: e163 d368 3768 c3bf 6467 8ecb 3c78 c43f
00000470: f578 1d8b 4050 c8bf 8290 f1d9 b5e6 90bf
00000480: 2892 44e9 a1b6 ad3f b7b3 33fe 49db a3bf
00000490: 9e26 7fbe 2c11 ae3f cab7 d233 5a54 b0bf
000004a0: 248a b264 8053 b9bf aba8 ac2a 5b38 a03f
000004b0: 1353 6f40 fd0b b93f f133 8123 53dc 7abf
000004c0: 1e6d f7fc ca78 bfbf e3ad 33ba fb16 b23f
000004d0: e196 2f2c 57a3 53bf 55f8 62ac 84c1 b3bf
000004e0: 4111 8795 115b a13f 8f8b be0a dcdf c93f
000004f0: 6cb5 af14 609d a63f d6b0 8a8c 4079 803f
00000500: 1534 c339 9261 a1bf 2981 e8b7 d203 c8bf
00000510: 2fd1 7609 36c2 b3bf b43c 9f96 cf2a c6bf
00000520: bc10 c564 3a5a 963f bf1d 2321 490d c3bf
00000530: e21f bfad d7e1 c73f a0eb 94c6 1f4f b63f
00000540: 5ba5 d922 1bed b83f 27a5 8eff da0e c73f
00000550: 3779 10ba 2149 b1bf 4be7 c673 30ed c3bf
00000560: 7ef3 a3cc 83e7 a43f a42c 32c2 bf9a bebf
00000570: e32e 1aa0 8c1b c53f d6fe 4b8e c6ce c13f
00000580: 293d c4ac c5f2 933f e984 6911 96b5 c33f
00000590: 0280 10c8 371d ae3f 5825 cc5d 90e8 cbbf
000005a0: 1363 0fe1 3b8f 8f3f 610f a97a 8abf c5bf
000005b0: 31f4 d7ce 4206 923f 4b3f 1b65 56b6 cc3f
000005c0: bfb1 8ac7 0e0e a93f 8a6d b069 4689 843f
000005d0: e0af d5f7 3000 c8bf e81f e9dc ebd3 cbbf
000005e0: 36b5 6506 197c bf3f 9943 90c2 81b2 ca3f
000005f0: daa0 777a ec28 75bf cbc9 6317 4b3a c7bf
00000600: ca26 13db 8d86 c7bf 3475 f565 c65e c83f
00000610: 55da 961f 56d3 b1bf d9c9 5e0b 4b2a b33f
00000620: fec8 bbb5 73e3 883f 9143 86cc 26e7 923f
00000630: f9ee c45c 2c3a a53f 3b6e f4ff 9113 a8bf
00000640: caad 79d9 8aa6 c8bf fec2 ddfc cd9f c5bf
00000650: 36aa d48b 93df 993f f70f 57d4 9d04 af3f
00000660: 7fc7 2a56 f459 b6bf cbbb aec4 6337 983f
00000670: 9313 af7d 7848 c6bf 7d7e b0cf f2b7 b33f
00000680: 7979 8bd3 579f b9bf 0656 f270 f823 c73f
00000690: 3107 a996 900e c8bf d53e 07a3 6127 b5bf
000006a0: 7c67 87df 86fe ca3f b7dd f4c5 ae47 c6bf
000006b0: 0fd0 be7c 186a 5ebf e662 8848 3cfc c53f
000006c0: 12ed 9e11 b9d3 b4bf ce53 2f3e 864d c5bf
000006d0: 78e4 f6f0 84e3 c8bf ff89 806b 782e c3bf
000006e0: 5603 442f acbc 8d3f 47ee f64c 0d2c b7bf
000006f0: 3049 841c 4c28 c3bf acab db08 ebd5 bd3f
00000700: dd44 b760 08c2 c9bf 6e35 0ee6 2a94 acbf
00000710: 6914 55c2 3178 ba3f e951 9370 240f c33f
00000720: 6a82 faa2 56b9 a63f ba1c 5bfe ba57 a33f
00000730: b08d 86ef 7a2e c83f dca4 709d 0a7b 8cbf
00000740: 398c 37ac 3b00 b83f 97a2 b5fa 8d02 93bf
00000750: 3904 3db0 3510 c6bf a14b 4410 537e 873f
00000760: f57b 53f5 fdad 8abf 6918 820e 46d7 abbf
00000770: 420c 71a3 ca47 1f3f b6da afcd 6874 943f
00000780: e6a5 68be d638 cbbf 5ec5 6b64 f82e cb3f
00000790: c1eb e8b7 8083 ca3f 8c52 a3ca 0360 bdbf
000007a0: d66a 6650 b082 babf 1477 2f68 e883 c7bf
000007b0: 250b 5da5 ea90 a53f b290 194e 1b11 833f
000007c0: b22c 1598 0575 b2bf dd26 e60b a0da bb3f
000007d0: 77e7 4151 05c5 bdbf 77c6 7683 2511 b83f
000007e0: b01c 5fca f0a1 c33f 936a 7c2a 6bf9 ca3f
000007f0: 571c 88c1 6619 c7bf a5a6 6a5c b707 b63f
-0.09834593471732479 -0.00601313097325955 -0.012103196775778143 0.033013482861614575 -0.07459920384724639 -0.11993996551131358 -0.1497152653714186 0.052163427820744
-0.11019740616824371 -0.12599240063601297 0.10974822965116626 0.1471867480867958 -0.19178241319052358 -0.2135698714090696 -0.14212965160490657 -0.044062582211400594
-0.011105146704944781 -0.08892057476843453 -0.048269822802651206 0.0756310337379036 -0.00991159452210967 -0.06811902767705777 -0.08908878477890354 -0.17510336727453646
-0.14850324395346995 -0.15771288770251563 -0.20218759756051527 0.19641616366880738 -0.11460093454362495 0.03986965482893122 0.009648213349120256 -0.11753762735669053
0.18523127105779535 -0.13041333390725474 -0.07834083126648705 0.055514510451654085 0.12254286271372514 0.19885547689633432 0.16058793536632363 0.024915705558056167
0.020023534866664416 0.15189415904255665 -0.13890548738366262 0.2043420603423457 -0.038808589724718394 -0.15439271191370232 0.18929803205753415 -0.02699404424991962
-0.18824555750706712 0.09913650993259367 0.030010665526684636 0.1593339494303406 0.20918144065508842 0.1625407964363153 0.16158437247826768 -0.07910173731594951
-0.15663617150205525 -0.08208799755929709 -0.007217161361837838 -0.13620892364964557 -0.20388870148396415 0.038712459222030766 -0.08148247711695833 0.09763507339204393
0.14661478499662897 0.13478923775994328 0.18247122058595228 -0.06948117651425954 0.19924383139433918 -0.16661926044807515 -0.0591783168462069 -0.15504628113209673
0.006916332832677956 -0.09333751851567128 -0.05081473997510105 -0.12821365791395867 -0.1872542513594276 -0.16590164251560682 -0.14929434078178302 -0.095232850696242
-0.02326589233058 -0.1951493755473331 0.00042455197972121627 0.0656361349017989 0.13067082105797997 -0.19900300645112434 0.08103802384006992 0.18728788663876786
0.17641701987164704 -0.15221191329036055 -0.11135892155050675 0.005296034540239477 -0.0749259726847444 0.09659242529885408 0.15836458146444865 -0.09313582634548316
0.08922105478708 -0.2088189408667657 -0.17107674268574108 -0.062337091873068136 0.08264169031419162 -0.10940876279747057 0.03907071623524762 0.08986476734810657
0.005236228963349579 -0.06786812263540842 0.18228863547379104 -0.18650655354470141 0.16887349304723806 0.08906241348912444 0.07433696360173173 -0.14364298768357922
0.02058258167802694 -0.04297653818036052 0.10414710938012621 0.06661224478576704 -0.1632820932310583 0.21307432267564633 -0.16694312633179811 0.048693169177462976
0.0010500647567558488 0.1648239628390878 0.01995753472409417 -0.004715323184942697 -0.03427761693853162 -0.2146238214566428 0.2167609845099332 -0.03342853022443646
-0.14939961897929824 -0.04147837169431596 0.09621228674999142 -0.09353337125519771 -0.014872649999702841 0.09314610724337852 0.1462255492569518 -0.14050635334291542
0.13349663782154933 -0.06488969845508516 0.07634855865348184 0.08854112267607363 -0.15161793344921562 0.1599193567206455 -0.18994910042506033 -0.01650509016725766
0.05803400013454435 -0.03878241756488115 0.05872478318594897 -0.06378711476528945 -0.09893038233216395 0.031679963073046956 0.09783919165722592 -0.006557774315365515
-0.12293690372409968 0.07066319747871534 -0.0011986113829548994 -0.0771716042390563 0.033897923949128834 0.20214415096878866 0.04416942837256496 0.008043770112032094
-0.03394753413304145 -0.18761667232411952 -0.07718217593248221 -0.17318148474303074 0.02182856788682906 -0.14884294622446068 0.18657966598243464 0.0871448383158353
0.09736795044741113 0.1801408527219703 -0.06752215187632236 -0.15567594197437482 0.04082881806423354 -0.1195487832175553 0.16490323846334495 0.13912279079521878
0.019480789823373677 0.15397907114223777 0.058816664859705284 -0.2180347879405342 0.015409915738858559 -0.16990786542202854 0.017602008700112918 0.22431449829900382
0.048935376985670846 0.010027456379296824 -0.1875058374529308 -0.21740482603695388 0.122987331449356 0.20857259750530657 -0.005165981048300428 -0.1814664711196897
-0.183793765993235 0.19039230326135625 -0.06963098784658801 0.07486409213632984 0.012152580245559094 0.01845989821737565 0.04145945198476215 -0.047024309629901194
-0.19258247012053992 -0.16893935057625947 0.025266938600149134 0.060582096262379474 -0.08731009582223058 0.023648795012998918 -0.17408662926586924 0.07702558107893683
-0.10008763231915009 0.18078523173305444 -0.18794448238809872 -0.08263216238196532 0.21089254297731574 -0.17406258264393923 -0.0018563498624475404 0.171760116020571
-0.0813556354541343 -0.1664283565175126 -0.19444333806839942 -0.149855663768065 0.014520020668443639 -0.09051592949884323 -0.14966727631014853 0.1165453812242691
-0.20123390886741435 -0.055817928870150677 0.10339652056161842 0.14889960762833646 0.04438276996120723 0.03777870516710764 0.1889184636648742 -0.013906557969749427
0.09375355677143284 -0.018564432551473855 -0.17236968140972111 0.011471413549349498 -0.013027175950297102 -0.05437678267576091 0.00011932539278895849 0.019975316576131795
-0.21267208382896213 0.21237091925972157 0.20713814716313375 -0.11474631974426525 -0.10355665171520498 -0.18371300780466326 0.04212125080677812 0.009309972115439134
-0.07209811175305239 0.108804705529248 -0.116287548387758 0.09401163539475897 0.15337953454420505 0.21073665213119294 -0.18046268892087156 0.08605524069084909
