models/rl_model_kafka.pth (torch, 17562 bytes, 10 tensors)

fc1.weight f8 [16, 30]
00000000: a59c a57b 1c33 b63f 7329 1552 2db3 873f
00000010: e68b 3345 d570 b33f b48d d5a2 6549 a5bf
00000020: e7eb d18f be17 c63f 16a4 e243 604f a5bf
00000030: 5d82 30b8 9286 983f 95c7 9134 68c0 bebf
00000040: 03c8 322d 6e40 c0bf 19ef 654c 7e9b c0bf
00000050: 77c2 dc2c c508 96bf 515b 4b00 3607 8b3f
00000060: 8c13 8027 f218 b4bf 661f 0639 9ac2 afbf
00000070: cfff 98ef a716 89bf b233 a6c0 f724 a2bf
00000080: 4690 4e7b d3f2 c2bf 7bf4 e485 d948 b93f
00000090: 1d0d fd46 590d bdbf ec63 f098 0a94 b03f
000000a0: 48ce 3e15 5f87 97bf dd51 3aa2 2255 c63f
000000b0: a0cf 84c0 c924 65bf 266b cbe5 2edd bb3f
000000c0: 36cb b662 a20b c73f 9ad2 47bb 06ef c4bf
000000d0: 3337 34ca ab8c 803f 110b 73ed cc3a c0bf
000000e0: c1a0 95a2 83fb c33f e4e7 d80b 7d41 bb3f
000000f0: 7f40 23ef c9f0 9fbf 3878 49d8 3622 ba3f
00000100: 0fa1 50d8 491a 303f 9d17 3fd3 2bc7 b13f
00000110: 5fe7 646c 43f2 96bf 4e57 f411 7d61 b13f
00000120: ad0a a4ac eca7 a3bf 54c8 5f65 d303 b4bf
00000130: 7621 1e72 bcb7 c23f 2d6c 1f7d 15a9 bdbf
00000140: a664 f940 f6af a2bf b3e5 e92d 8f9c b2bf
00000150: 6f92 202f e581 c6bf 042b e06b 454a a43f
00000160: 9cd5 1fad 8242 c63f e674 a2dd ceb9 a53f
00000170: 5298 2010 49db c6bf f80e 66ba c112 b0bf
00000180: 38b0 63c6 89fb c4bf 3d95 5ec5 c0c9 a33f
00000190: 9f69 8079 8f37 b6bf fe9d d4ef c592 a03f
000001a0: 3d3e 4c71 fad7 aebf 647b c1ee ee1d 913f
000001b0: a180 5bfd ba3a b03f 84d5 031d 8e92 c53f
000001c0: 7d25 99c0 cd9d c0bf acdb 1eb3 b61d babf
000001d0: c787 3781 9e0f c33f ebe5 94ea 558d bcbf
000001e0: 1482 ad76 36c7 c73f 7679 1180 5711 c5bf
000001f0: 17ff 6e44 0d37 973f c19d c73e 86ff c23f
00000200: 023e 1875 35c1 c6bf 8e8c 5700 b5f0 ba3f
00000210: 3e36 ce2e cbec c3bf 4329 7ddc 3f37 c6bf
00000220: 411d 7d1f 39cd c1bf 9046 f38e c67c c33f
00000230: e0af 5cda 3675 b5bf db4f 685e d8e9 a2bf
00000240: 3217 27e8 ee8c 94bf bfb9 9c4b bebd a5bf
00000250: ea2b 85cb c0fa c5bf 8359 51af fdf8 bd3f
00000260: 4ae3 51f4 b1b2 a63f f1ea 0949 c26c c23f
00000270: 3e16 fac1 1392 b2bf 035b c056 f2a3 c6bf
00000280: 1cc2 adff 0795 af3f bd5c 7a58 d9d7 b6bf
00000290: 06a7 a7eb 00c8 bf3f ceb6 da43 6654 b6bf
000002a0: 5e05 d2b1 62e6 bb3f 2fc5 85fb 7dd1 c3bf
000002b0: 72f5 3871 bf33 b23f b44c 8144 4d77 b5bf
000002c0: e018 2137 10f9 f73e f154 3afc 5bb5 8f3f
000002d0: 9119 6914 c3df a7bf fdeb f110 a72c b63f
000002e0: 47e7 d540 40aa a7bf 9ed9 63ef fc34 a73f
000002f0: 4e0e f168 eabb c0bf 4998 d7c1 e179 9c3f
00000300: e5da 1a3b ba94 c13f 2058 a67e 1ec8 9ebf
00000310: db83 56fd 7bf7 b7bf 6f34 1fbb 6444 c5bf
00000320: acdf bcea dede c7bf 6d58 daac 4726 b83f
00000330: 9262 ba60 14c6 c43f 7942 a0c2 ab6e b03f
00000340: a873 0c3f 03e8 bf3f a25c 9ef1 8889 bcbf
00000350: bd25 d324 e0d0 be3f 0260 9401 f823 b03f
00000360: 3110 b36f 411f 9abf 5b66 4954 1399 c53f
00000370: aa8f 839e a9ac b4bf 4024 d202 a024 b73f
00000380: 7767 c928 a777 b23f a673 91c0 b7a4 c5bf
00000390: e907 8e9a 95b2 823f 3a71 4d72 7be6 c03f
000003a0: 651d d167 2ab2 b7bf 21aa d2d8 1a20 a73f
000003b0: ff04 c13e 04c8 ab3f 5ca0 e42e 4b5d 7a3f
000003c0: a08d b4ac 3b9a a73f 8340 70e4 4765 bf3f
000003d0: ad21 1941 fc9f b33f 81ab 6431 71cf c03f
000003e0: 9dd4 320c 3dda b1bf 3a57 7670 634b 9bbf
000003f0: 7b70 1fa7 29df afbf 6501 3a73 be95 b53f
00000400: 6158 e936 b977 8a3f 53cd 78b2 4343 b2bf
00000410: c8d8 6ebd 6022 b73f e9f9 1fe8 e94a c63f
00000420: 15f7 80bf 8661 b9bf c2d4 1c21 4128 c53f
00000430: b59a cc4d 8e69 c43f ee00 799b 3d09 bf3f
00000440: e9dd 758a 049c bd3f 6e8e ac97 fab9 a63f
00000450: 1721 77fc d51c c4bf 722b 7fb7 480b babf
00000460: b46b 3081 8f0e b43f f710 8dad d3e1 893f
00000470: a8dd 25fb 3cbe a63f dedc 906b 0f07 6abf
00000480: 897b 2bef 5dd5 a0bf f684 b7de 64ab b13f
00000490: 7d2d 922f f994 a23f dce1 2f0c d73a b6bf
000004a0: a214 2cf4 1bd0 ae3f 65b5 a2d6 0a5e b0bf
000004b0: 874c d4b8 be66 a73f 1fbc 23ab 235f b9bf
000004c0: adbc 27b2 c738 ba3f 4054 faa7 e7f9 b2bf
000004d0: aef4 01cb df65 c6bf e397 f970 3c33 b13f
000004e0: f068 0bc3 2440 b6bf 465a 040b 394f ab3f
000004f0: 0037 5690 ac31 b4bf 3a5a 3c3d 2996 bebf
00000500: a995 2a39 31e8 b63f 291c 346f 9fbd 9c3f
00000510: c797 b8e6 9c6c 6cbf 552f 34e4 7cd6 c53f
00000520: b602 e7d7 87f6 c13f 8dc2 1916 bb27 c43f
00000530: 9817 6dcb 3104 aabf 7719 265d 416c bc3f
00000540: 737a bbb8 2de0 c13f 4c45 aea2 11dd c6bf
00000550: 163e 1642 287c c0bf 3b06 549f c7d5 be3f
00000560: 205f 9dc9 89a6 babf d570 547e ea7e bdbf
00000570: cdb7 2863 7949 bdbf a4cc 447b 06c6 c53f
00000580: 00cd 74be 7674 b7bf 9c8a c2cb a44e b53f
00000590: 6685 9b0f 0249 babf 18be 1243 5b0c c23f
000005a0: 0cd9 3cc5 cbc1 b0bf e3cc 3830 2f59 c43f
000005b0: 8811 c68a 35ee a6bf 10ef 8073 aa0f bb3f
000005c0: 78ef 9595 e62d c13f 7986 c990 e34b b2bf
000005d0: c004 4dd0 4369 c4bf eebf 6107 31d3 97bf
000005e0: 46c3 06c2 30c8 b8bf 6c49 e16b 6951 b73f
000005f0: 8350 82d5 8c01 b1bf a152 209e 9091 c4bf
00000600: 4326 e94e 05f2 be3f b870 a0f1 03ab 9e3f
00000610: 61c0 cd9c 8b1b c2bf 8dfb b6da 6685 c2bf
00000620: a396 3c49 e66b c23f a32b 4687 6cf4 a53f
00000630: b02e e05a 7e17 a9bf 8a71 3c7d e292 c23f
00000640: f320 714c a6ca b33f c40a 9e96 8f9c b23f
00000650: c2b9 5839 cddf c0bf 3486 3411 6d3c ad3f
00000660: 6be9 da4c 1334 b53f 9130 d463 889c c33f
00000670: a405 a1ad 35eb acbf d89b 590f e201 bcbf
00000680: bf20 8efc 9184 9d3f 4760 6343 39ef bbbf
00000690: cfeb 871d 64de a53f d2b6 9066 a7db c13f
000006a0: a730 24a7 e803 9d3f 1f5f 6355 88a4 bc3f
000006b0: 887e 845f 646c bdbf 9b94 13e3 9981 823f
000006c0: c7fc 7172 6b60 b5bf 1ced 2e80 6309 c13f
000006d0: a8c8 6f11 33d6 bdbf 9435 f7be 5b2f b13f
000006e0: 9f75 0950 1f67 c53f f548 c202 0ec9 bc3f
000006f0: 7c3b 8ade 4f20 c5bf e6b6 9fd2 b10f c73f
00000700: 96b1 5517 623f c23f 58a5 bd0f edd4 bdbf
00000710: 25ae 982c 62c3 c0bf 7b9f 5348 df37 c23f
00000720: e7b2 a188 f59f a7bf b93a 2d08 c5fe bbbf
00000730: 6a29 b057 3321 c7bf 70f9 2e70 69ff c3bf
00000740: 0cf7 afe7 ff16 8cbf c452 8144 40e1 c1bf
00000750: f9af c997 d0c9 b1bf 20e0 1398 7486 b43f
00000760: 7b8f 6e0e bf20 c6bf a9a3 e099 0be0 b5bf
00000770: 06da e434 63ec b7bf 3e31 a37d 3983 c1bf
00000780: 30b7 94cf 7abe c23f bd2d 4f29 aaf9 c23f
00000790: 2cc5 a7a7 b821 acbf ee9b 1b9b de46 c53f
000007a0: 0923 bd2e 5cdd af3f 5d9d de71 5de5 b63f
000007b0: c445 9f00 01cb b93f e767 5e91 483b c5bf
000007c0: ce2d 7b73 f2f8 90bf 21af 1417 7cb1 b4bf
000007d0: 05e0 f307 0c89 a03f 584e 4f4d 2d83 b8bf
000007e0: f108 3469 8b97 9fbf 1bf6 5dbb 2117 c43f
000007f0: e6cf be5f 7f0e a3bf efc3 88c5 c223 c23f
0.08671739596103352 0.011572221820320227 0.07594044627653282 -0.041575599791737444 0.1725996210332987 -0.04162121609380891 0.023950855724367382 -0.1201233986228359
-0.12696625906897915 -0.12974528055553305 -0.021517830718212196 0.013197347530348987 -0.07850564445841551 -0.06203157373516781 -0.012250244140091042 -0.03543829180407644
-0.14803546448558985 0.09876784819512523 -0.11348493559949131 0.06475893243658931 -0.022977338477814052 0.17447312279968133 -0.0025810184926288865 0.10884373769969766
0.18004255123158835 -0.1635445036369177 0.008080808742785805 -0.12679444879730586 0.15611310423560634 0.1064680246280712 -0.031191973896796284 0.10208456783718212
0.0002457075391384547 0.06944536120781071 -0.022408536425451483 0.06789380730000724 -0.03839053733283513 -0.07818337655024382 0.14623218128350474 -0.1158612661815119
-0.0364987329782676 -0.07270140524806017 -0.17583908845076077 0.039629144113936504 0.17390473798120076 0.04243322806835596 -0.17856705939738277 -0.06278620529888801
-0.1639263361643104 0.03864862832350944 -0.08678528515193883 0.03236979057902188 -0.060241533594418396 0.01671574909448327 0.06339615521892707 0.16853500763651763
-0.12981578735552182 -0.10201589463291211 0.14891415891093926 -0.11153161027041107 0.18576699061215207 -0.16459172967274655 0.022670943548063507 0.14842298570077442
-0.17777126519693814 0.10523539789532974 -0.15566386971879526 -0.17356107965526676 -0.13907541310821084 0.15224534969324965 -0.08381979781250903 -0.03694034721789282
-0.020068867606617143 -0.04246325181007959 -0.1717148774863227 0.1170805504819779 0.04433208568020193 0.1439440590509871 -0.07254146085514265 -0.17687825427920964
0.06168389316633613 -0.08923109445673823 0.12414556268018026 -0.08722533375358951 0.10898415414159987 -0.15483069211362863 0.07110210909100603 -0.0838516514061663
2.2862342526041505e-05 0.015482634196170216 -0.046629043809434674 0.08661884463974441 -0.046220786966797926 0.04532614156953517 -0.13073473095038185 0.027808692413508394
0.13735130201322146 -0.03006026885994839 -0.0936200612545827 -0.16614970337687704 -0.1864889761143308 0.09433410615960876 0.162294909697057 0.06418870450603177
0.1246339825560897 -0.11147361658946633 0.12037468813937031 0.06304883993686874 -0.025509855692476605 0.1687339936786881 -0.08075962181061294 0.09040260380619802
0.07213825937051675 -0.16908928778403015 0.0091296851912865 0.1320337589376182 -0.09256234201995069 0.04516681572689075 0.05426038042106462 0.006436628040582173
0.04609858020037483 0.1226391728125709 0.07665993298826974 0.13133063232211487 -0.06973630473915411 -0.026654771556045655 -0.062249471331342364 0.08431616128109949
0.012923666942850244 -0.07133887393211084 0.09036831497982967 0.17416118463729838 -0.09914438414940847 0.16529096714808672 0.15947130965033343 0.12123475118369573
0.11566189175015719 0.04438765622606132 -0.15713000132951357 -0.10173468093777929 0.0783471765902693 0.01263776181588881 0.04442015233774593 -0.0031771947074293724
-0.0328778604941738 0.06902151524947783 0.03629282670689358 -0.0868353276017681 0.06018149715058853 -0.06393497219206308 0.045705757200402757 -0.09910796097004536
0.10242889499180548 -0.0741257462598961 -0.1749839535949937 0.0671880508249099 -0.08691625367956468 0.053338797182892736 -0.0788829662689885 -0.11947877640737029
0.08948047300017116 0.02806710354073175 -0.003469759414445914 0.17060814993635157 0.14033601801022194 0.15746248797542642 -0.0508132515738417 0.11102684520856153
0.13965388794072772 -0.17862148707767245 -0.1287889788331859 0.12044952049111483 -0.10410367176279722 -0.11521783432221196 -0.11440237685084682 0.17010575312597098
-0.09162084722338548 0.08323125815017324 -0.10267651444475731 0.14100209021624788 -0.06545709195492949 0.1589716897447949 -0.04478614157690958 0.10570779151833798
0.13421327880848444 -0.07147047314495038 -0.1594624297231686 -0.023266569209624714 -0.0968046640107448 0.09108599551953994 -0.0664299031507785 -0.16069228859909848
0.12088044334918728 0.02994924700043164 -0.14146561771804314 -0.14469609908516326 0.14391783309945536 0.04288043166442115 -0.049007366746164904 0.1451075660232955
0.07731093755967659 0.07270142962628784 -0.13182988453031724 0.057101639127960985 0.08282585741372876 0.1532145011373172 -0.05648200745100532 -0.10940373301274009
0.028826027908082304 -0.10911901374072484 0.042712334256030375 0.13951580532141478 0.028335223390101884 0.11188556751892208 -0.11493518192264152 0.0090362570212597
-0.08350249809335529 0.13309901961279358 -0.11654967475604627 0.0671288815712699 0.1672095433049607 0.11244285170895181 -0.1650485836621235 0.1801664617955147
0.1425593007983365 -0.11653024324700334 -0.13096263101157138 0.1423300841481668 -0.04614226620546962 -0.10935622644067679 -0.18070070058486049 -0.15623205163678788
-0.013715743310963834 -0.1396866163728615 -0.06948569970853659 0.08017662728150343 -0.17287433819467055 -0.08544991022848926 -0.0934507373939156 -0.13681715616838547
0.14643798003947373 0.14824416176848657 -0.054944773164502386 0.16622526715875047 0.062235718446180206 0.08943733243960623 0.10075384392918979 -0.1658716878708326
-0.01657465772477256 -0.08083320201393153 0.0322955856044587 -0.09575160157629037 -0.03085153417215109 0.1569559254530056 -0.03721998256460761 0.1417163338205962

fc1.bias f8 [16]
00000000: cbf8 6a05 80d9 c2bf a30f 093f 294c bc3f
00000010: 988b 122f 7478 c53f 8efc 536f 26a1 bc3f
00000020: cf13 05e3 8410 b53f daad 4588 8aca 6a3f
00000030: f6ac b9f1 9087 a83f eb64 ede6 ab0c bdbf
00000040: 0cdd 73e8 ff50 b1bf 40fe 175f c38b c03f
00000050: 4ac5 b018 2ec2 8ebf c179 c444 419f c33f
00000060: e941 6a8a 3544 9c3f 3dad 9e76 8fb9 b4bf
00000070: 95cd 02bf 99fb b4bf d074 33cd cb62 bb3f
-0.1472625757650746 0.11053712643575735 0.16773845957240208 0.11183395593615073 0.08228331129528431 0.00327040726749826 0.04790928793667064 -0.11347460162996341
-0.06764220643150426 0.129265233452303 -0.015018806580061512 0.15329757554805037 0.02760394723242313 -0.08095642705909696 -0.08196412003854044 0.10697625884809558

fc2.weight f8 [18, 16]
00000000: 16e4 053f 1533 c6bf 269a 557a 43df 7d3f
00000010: 244f 9cf9 17c4 5cbf eade e3c6 d72f b03f
00000020: e15b 31ee f1a2 b13f daa9 a617 2a64 a63f
00000030: f1fc e1f4 ccf6 cbbf 5ef1 fe5c 659e b5bf
00000040: 92bc b6e9 1997 9d3f 90e7 6317 cbfb cbbf
00000050: 025e 2db6 df04 a03f 5b18 7e59 7144 c83f
00000060: ce85 5854 0f8e c6bf 2479 0a8f b639 b7bf
00000070: 9862 d259 a8d6 ce3f 03f0 1a32 afe3 c3bf
00000080: c62e 529b ad40 b2bf e54d a275 819d c7bf
00000090: 7ab0 500c 3ca1 993f b1cf e20f c2b1 cfbf
000000a0: 0ce0 19a6 802d 5fbf f4b8 87fc ffe4 cabf
000000b0: 3799 0a45 2195 c03f d97f 66f1 06d7 c83f
000000c0: 0e3a 532f ea85 c73f 0692 ba2b b3c9 b23f
000000d0: fb96 0fdb d5fa a53f d20a 7cf6 ed31 c5bf
000000e0: f27a dfd1 9716 c2bf 5dc8 892b 650f c4bf
000000f0: 5741 1848 39e7 c63f 7a09 3671 dfa0 c5bf
00000100: 2cba 463e da68 afbf f701 14af 5160 b43f
00000110: 93da 6150 acd1 41bf 0e3a 2066 b06a c63f
00000120: e933 6f14 310b af3f 48ee 0e28 6641 cfbf
00000130: 2dd8 5e07 2d4c b8bf b1e4 ebd7 aea3 cc3f
00000140: 4ac3 ea06 4cf3 cd3f 1209 d251 d58c b4bf
00000150: b62b 2434 59a9 8e3f 400f 77dc 026b c4bf
00000160: 0c05 034c 62da cb3f 9b2c 6783 a6ce bc3f
00000170: 844a c98a b6c6 bbbf 26d3 58e6 f899 c83f
00000180: ee5e 1cfa 7d8e c8bf a8cc f075 15f1 ca3f
00000190: f14f ed3d 7782 c23f 99ab 4834 d59b cd3f
000001a0: a21d 2f41 b4b3 c53f b23b a5bb a49b c23f
000001b0: 82ac d8fc 5f33 cfbf 714c e727 3574 ce3f
000001c0: 987d 178b 2594 78bf f369 a6a0 9108 c13f
000001d0: e1d8 1c03 088b b0bf 8788 6764 103b bd3f
000001e0: 60e4 0b94 aa05 b63f 6762 5e5d 744e a4bf
000001f0: 4e4c a92b 5e27 993f e1d7 259e d7da b0bf
00000200: 892b 9f2e c61a d03f 9604 fde0 5fbe bb3f
00000210: c965 72a6 ba64 b1bf d855 d22d 9fd5 a5bf
00000220: 99b9 a574 c87b ccbf 4969 49fd 4873 c7bf
00000230: fe69 0abf 9339 b6bf c008 0dc6 6fcc cf3f
00000240: 030a 5094 ccf2 cd3f 7873 42a0 46df b0bf
00000250: 3029 7241 d0a4 8e3f f455 6bfd bf86 cc3f
00000260: a328 f325 ad04 cbbf b6b3 7b5c 6b33 c13f
00000270: 7736 0545 f66f b63f e877 79df bdc1 b63f
00000280: f500 2c93 0bee 8d3f 4773 d50a ff68 c93f
00000290: 377f ef24 70e8 cd3f 9084 7042 9bda b0bf
000002a0: 4651 b876 1992 ab3f 926e 420e 3cfc c63f
000002b0: a451 ab81 469d bf3f 3d0a 825b 23e4 c9bf
000002c0: 4d9c 5e79 fdc8 bfbf 9266 0415 8e73 b6bf
000002d0: 8540 94b5 9cae c63f d546 d294 ec59 933f
000002e0: e3d2 3445 9e14 a63f a833 0b36 7b83 b43f
000002f0: 493d 7b03 8b1f a23f 2b69 2ea7 a482 c23f
00000300: caa3 a83d 26ff cdbf 9d6c 4217 ceb4 bcbf
00000310: ae5c 97a0 db8f 98bf 9e24 f8c9 95cc 963f
00000320: 2da1 4cd5 baa1 853f 6ce3 f78d 1b9a b03f
00000330: c81d 1daf 631f c5bf dc72 d225 191e c03f
00000340: 82f4 645d 356a c43f 4186 48c5 7e6c c4bf
00000350: 4fd7 4db8 e53a a23f 10ea 6a7f 0d8c c33f
00000360: c8e9 6c49 6b9d c8bf 9eb9 a7f9 3dee c23f
00000370: 18cb da47 147e b4bf 3d66 e4ab b437 983f
00000380: 44ed 87bf 8287 b83f df53 62c8 6002 cdbf
00000390: de6a 695f f833 b8bf d1cf 35ff 0939 79bf
000003a0: be9d 3da8 5bbb b2bf 3a09 6557 61e3 cd3f
000003b0: 17e1 bff6 11c6 b2bf 29d1 2f5e a24a 9a3f
000003c0: b007 5f53 62f1 cdbf 7941 4143 6936 b33f
000003d0: b948 dddc 683f c03f cb24 a17e 3699 c2bf
000003e0: aee5 a9c9 572c b6bf efc5 e39e 5e01 c13f
000003f0: 340a d45f 1e92 cb3f 337e 4531 2998 cb3f
00000400: d003 0019 0c65 c1bf 251b b41e 6b6b c83f
00000410: dffc 8a2e 89c6 bbbf cc3f c9bf 47b1 c43f
00000420: 2de0 b9cd 5c24 c6bf 21be 314a c2c5 c9bf
00000430: fdad 0ef9 8312 c9bf 4202 362b af6c c5bf
00000440: 1118 7433 73b4 c7bf 60e0 9025 2364 b6bf
00000450: 5e9a d6bd 20fa aa3f 7164 4440 b7d9 c23f
00000460: 3eb3 1d5e d767 b23f f6f6 bf7b b3c7 b8bf
00000470: 0379 85fb 61a7 b33f 4662 1ab1 34f0 c63f
00000480: 4cec 23a6 e86f b53f 91a3 1bce 4088 b8bf
00000490: 677b 9552 7ae1 c3bf cc44 cb7d 28b2 c43f
000004a0: 967d 9dab 6522 bc3f 43e6 68fc 6135 c83f
000004b0: f866 b912 a0d2 c93f ae7f 4f6d 1b72 cb3f
000004c0: 6f16 2dcb f832 b6bf 32af 751d aaac cabf
000004d0: 8992 258e b6a6 b5bf befb 1bca 1a41 9d3f
000004e0: ab1c e777 7fe2 cdbf 4e54 e717 9956 cfbf
000004f0: 1d84 3f50 ce6f b13f 3051 ed7f f3b7 c73f
00000500: 5105 db34 26b1 ce3f dd19 b7fb 33db b8bf
00000510: 8fd9 5199 f181 ce3f df74 491f 1330 c23f
00000520: baa6 06be c089 c6bf e935 8333 262d a23f
00000530: 75aa 69a6 23e7 adbf 7cb7 ba8f 2234 a73f
00000540: b2c1 2a87 8664 7e3f 416d 943e 5a78 bfbf
00000550: f386 11dd 355d ad3f 0724 ca43 4cdd c23f
00000560: aa9c e2ef 4e7c 953f 547c 5dc3 e46d b7bf
00000570: 93ed eb6b f155 c53f 1885 7569 543f b8bf
00000580: 7571 0144 6519 cabf 48bb d8cd 5583 cebf
00000590: 3049 b9a9 6135 c03f 1576 e879 b45b b73f
000005a0: 118d 58db b6bf bfbf 57ff 6f16 a5df c23f
000005b0: cf7e 1f4d 7630 c03f 30f2 ea70 a871 9bbf
000005c0: ff60 5276 453c c13f 8493 0f9d 06b5 b4bf
000005d0: 0be9 e56e b72b c53f 1169 6dba 711c cd3f
000005e0: 4c62 dd54 3c82 c8bf 2ea4 d6e5 ae5f a03f
000005f0: 3764 362c 9560 c4bf de2c 543b 3c4f cebf
00000600: a336 5cac 2deb a03f 121c 2eef fd7b c5bf
00000610: 45ec 8077 c153 b93f ee97 2c11 350c b53f
00000620: eb74 cc7a d2ee b2bf aaad 629f 22b7 ab3f
00000630: 2025 9711 a1a2 b3bf b434 6f47 3938 8bbf
00000640: fd9c 7bcd 0964 c23f a8ae ac7c 12b3 c03f
00000650: 9dd9 d0d0 a6b2 ab3f 0abd 31c6 d51a bdbf
00000660: dd62 50bf c9c1 af3f acad b2bf a889 cd3f
00000670: 37dd 7c35 51ad ca3f 146b d5b9 6f35 c7bf
00000680: fb5c 00e6 1d4e c53f fd7e 76be 32d4 c6bf
00000690: b780 c1ad 2851 c6bf cb3a d53e b8d2 cf3f
000006a0: 4d0a bd97 a3da c53f fb78 5f08 07b2 c6bf
000006b0: c5bc 2667 52af c9bf f1e4 0fd6 1d10 ccbf
000006c0: 8362 4cb0 aaff bd3f cc36 4f93 93a5 b1bf
000006d0: 853a e451 3752 cbbf 1b97 1921 3d24 ce3f
000006e0: b0ad 48a7 7c73 bb3f 9a2d b37c 241d c7bf
000006f0: 0f03 35c5 f376 bf3f 8dc0 a017 1139 cc3f
00000700: 2d80 eba9 d11e c1bf f680 eb2b 4f08 c3bf
00000710: 47b5 32b9 17ef bc3f 4357 8405 ac7d c13f
00000720: a1b1 1785 4d94 c33f 0c15 e2ec 3256 b43f
00000730: e4f8 5157 b830 ba3f 26dc f7cf 5c84 cc3f
00000740: 6d60 d6bb 72a3 c5bf 9729 e1fa 9a26 c4bf
00000750: 9782 73e2 8e05 a43f dc80 73c6 332a a3bf
00000760: 579e f96d ad1b b03f 1671 3707 98e8 683f
00000770: 3781 b3fe 964c cabf 706d d7d7 15f7 b7bf
00000780: a6c2 c15c 6cfb a4bf f003 874e 4b72 b03f
00000790: 0a67 0ab5 d0cd c8bf 9daf 2305 fbd4 ccbf
000007a0: 1747 b444 212d cdbf 5875 c96b 4a23 bcbf
000007b0: ac05 6e0a 9eae acbf 4d52 501d 08d8 b93f
000007c0: 318b fde4 f53c bb3f 91e7 d9cb f18d c93f
000007d0: 5ca9 df52 c99f b73f 619e 60a2 9123 8cbf
000007e0: cabb 0393 63f4 b8bf eb98 5e43 2a0c d03f
000007f0: 09dc f96b 3fb2 c0bf 00d2 f8c4 c325 a53f
-0.17343392922683226 0.007292998872208167 -0.001755736745001132 0.0632300243922789 0.06889259400610072 0.04373294390400746 -0.21846925694624234 -0.0844481803932857
0.028896717920073707 -0.21862162248708872 0.03128718470423665 0.18958870763543953 -0.1762103235096632 -0.09072438232621899 0.24092583070593743 -0.15538587519210986
-0.07129941026704065 -0.18449419254157742 0.025029123546275824 -0.2476122453277845 -0.0019029384933713115 -0.2101135237748576 0.12955108519708755 0.19406210696342788
0.183774254901849 0.07339019601437977 0.042929347029525965 -0.16558622870805678 -0.14131448505118943 -0.1567198240841802 0.1789313890481121 -0.16897194888958805
-0.06134683618744349 0.07959471248978632 -0.0005437938095969756 0.1751308916722824 0.06063226103251635 -0.2441833205792696 -0.09491235189383991 0.22374520819702107
0.23398733461137972 -0.0802739453083954 0.01497144403812976 -0.1595157219400054 0.21760204993737664 0.11252823551255846 -0.10850087059342611 0.19219886062060104
-0.1918485137218719 0.2104822946435878 0.14460649989871358 0.23131814053462277 0.16954663451018087 0.14537486231207947 -0.24375533910765418 0.2379213757363661
-0.006000658658620671 0.1330740007804959 -0.064621449241574 0.11418249560623127 0.08602396120467537 -0.03966106071238045 0.02456423894393494 -0.06583926783591167
0.25163416436105784 0.10837363474731129 -0.06794325412410908 -0.04264542993875481 -0.2225275582854465 -0.18320572249906267 -0.08681605733946893 0.24842641039328406
0.23397214166477917 -0.06590691959941164 0.01496279430127298 0.2228622424506025 -0.21108021119136308 0.13438169494420799 0.08764590439860763 0.08889376359863344
0.014614191464261664 0.19851673153871216 0.2336559467648784 -0.06583567020472203 0.05384902548044805 0.17957258888497002 0.12349358239891345 -0.2022747227493528
-0.12416061604618385 -0.0877007294951915 0.1772037397972818 0.01889772089322757 0.043126054714240934 0.08013124532153759 0.035396904158569394 0.14461191332959208
-0.23434904108697047 -0.11213386600359106 -0.023986274410927315 0.02226480527136642 0.010562381395701504 0.06485149589560785 -0.1650204281852281 0.1259185251882603
0.15949122486373218 -0.15956101067517817 0.03560560107045651 0.15271156999172364 -0.19230404935099288 0.14789557161516326 -0.08004881624473759 0.023650000564066288
0.09581772972153596 -0.22663507255916124 -0.09454300240887956 -0.006157912302445071 -0.07317135674894978 0.2335015942317769 -0.07333481096418769 0.025675332068162113
-0.23392895766124644 0.0750489987560793 0.12693510803598487 -0.14530068572120167 -0.08661411927632542 0.13285429724014317 0.21539668730845707 0.21558108239968163
-0.13589621754365888 0.19077815055080652 -0.10849816690732748 0.16166016449505916 -0.17298469586580847 -0.20134762404221454 -0.1958775487995438 -0.1673792801848482
-0.18519439709069777 -0.08746547381531533 0.052689574407214876 0.14726915967984014 0.07189699218515685 -0.09679719706761233 0.07677280798586499 0.1792055001030965
0.08373884254608405 -0.09582905799801568 -0.155318537067582 0.16168695585523662 0.10989985885452422 0.18912911247916683 0.20174027361172597 0.21441977345875557
-0.08671526871065692 -0.20839430273496756 -0.08457509012584742 0.02856866701676685 -0.2334746680701064 -0.24483026187104645 0.06811227282698025 0.1853012442248967
0.23978116589391132 -0.09709477324859202 0.23834056841196768 0.14209212329561802 -0.17607888487446194 0.03550071123900606 -0.05840407759099701 0.045319633526886144
0.007420087337479607 -0.12293018367602306 0.057351763950249345 0.14737847623862896 0.020982011214667175 -0.09152059335382151 0.16668527383431506 -0.09471633505519994
-0.20390001125896232 -0.23838303137878314 0.12662907397550205 0.09124305702467723 -0.12401907782673428 0.14745009990292132 0.12647894635937582 -0.02680075825877476
0.13465183522635724 -0.08088723501675871 0.16539662280030884 0.22743054964923506 -0.19147447723186628 0.03198000484128048 -0.1591974702721772 -0.2367930688563779
0.03304426888472036 -0.16784643343655198 0.09893426101273047 0.08221751851360157 -0.07395663736356865 0.05413158603308983 -0.07670027427152037 -0.013290832035546131
0.14367792638152102 0.13046485030769372 0.054097378721439805 -0.11369072045066644 0.06202536068321305 0.23076352463008953 0.20841422187525335 -0.18131825040730887
0.16644643526590372 -0.17835077571816518 -0.17435177311108926 0.24861815517438965 0.17073483380416335 -0.17730796727023077 -0.20066289936719364 -0.21924183799982402
0.11718241504821418 -0.06893274637624386 -0.21344653605088496 0.23548091999253348 0.10723094066695782 -0.18057685936797158 0.1229088169539063 0.22049153951366343
-0.13375302121039692 -0.1486910786106887 0.11302326461255517 0.1366477038324608 0.1529633426538455 0.07944029124526625 0.10230590946045798 0.22278938440987978
-0.1690505425619934 -0.15742814302423078 0.039104905264825955 -0.03743135259151284 0.06292232451380052 0.0030405968952732605 -0.20546233593541682 -0.09361397285049633
-0.04098070747648323 0.06424399058506913 -0.1937809833514666 -0.22524965048739612 -0.22793975691507093 -0.10991349345700507 -0.05601972462956026 0.10095263209979884
0.10639893379770339 0.19964430288001414 0.09228189729006914 -0.013739717262139796 -0.09747907962058303 0.25074249819807787 -0.13043968937174125 0.04130374698107531

fc2.bias f8 [18]
00000000: 0c24 967e 58b0 bfbf 017c c52c 02bb 9c3f
00000010: 235c 9725 2f33 bbbf 36b6 b181 222a 88bf
00000020: 405f bc66 90cd c4bf 1fb6 1bf4 5330 bb3f
00000030: e9df e7f2 d1ba ce3f c2e6 b8df 68ed bebf
00000040: d303 81c5 5e87 b5bf 2569 7dae aec1 c0bf
00000050: e6b6 f9bd 5748 bd3f 141c 315c 142a 863f
00000060: f238 6651 ab5b c0bf c2c7 6fd2 22d1 933f
00000070: 0d2e ed10 51b9 c1bf a3b8 c9cb ff48 ab3f
00000080: 6b26 62ef 22dc c43f 1334 4f7d 3ac9 be3f
-0.1237845715569536 0.028057130797034095 -0.1062497584128868 -0.011799115736916038 -0.16252331749341842 0.10620617589639679 0.24007629738457517 -0.12081008398026952
-0.08409683534502159 -0.1309107162476916 0.11438511264870108 0.01082244783732559 -0.127797522302394 0.019352478117020906 -0.1384679157875869 0.05329131472250139
0.16296803177492633 0.12025800284682502

fc3.weight f8 [20, 18]
00000000: 816d 7c45 aeb5 c7bf d05f 4d43 1b3f c83f
00000010: 41df fbf0 80ba be3f 5fa5 3565 3834 a23f
00000020: e8e2 5365 c9a1 ca3f fba2 023b 9188 cdbf
00000030: 4720 7c35 74dd 80bf d66e b249 9af0 acbf
00000040: 040a ddcb 481d c5bf 55cc ac9d 3ba2 c63f
00000050: 7f59 a71c 9afc bdbf 79dd dd3b 7eb8 c6bf
00000060: f69d 9842 c14b a3bf 7948 06b6 9827 b03f
00000070: 953e a865 49bc a83f 2b95 6da1 672f cb3f
00000080: ead2 4107 a7bb aabf 4e8b 222c 8141 ccbf
00000090: cd60 dc56 aed2 b0bf fe47 3719 893c b3bf
000000a0: 7d2f 344d 5cba be3f cb7b add7 df7f 8d3f
000000b0: a15b c054 f75b ca3f 149a 5efa c74e cbbf
000000c0: 8972 33e4 4d4c 983f 5a17 4395 4274 a33f
000000d0: f1c8 d2e2 3d97 c33f e390 7ded b178 8ebf
000000e0: fde0 670b 54c3 b83f ea90 3c05 3092 b9bf
000000f0: 5170 154d 6c3e b7bf 19f0 60e3 da86 acbf
00000100: fe86 34a6 08f4 9e3f 1f29 6e63 54ab b4bf
00000110: 8e09 8bec 3822 b13f 6a44 ab6f 0edd 89bf
00000120: 90f0 f573 f533 bbbf 2518 cc0d d9c5 cd3f
00000130: ef7f d2c4 3d90 94bf 210b 9c5e d39d c43f
00000140: caa3 8390 d66e c63f 2b6b 266c e239 ccbf
00000150: 627b 4e0b 843e b03f cf0e 7b7a 83ae ab3f
00000160: a8b1 ba44 fcba bdbf 5570 578a c26a c83f
00000170: 8d50 a57b d008 c0bf 1481 48a7 5fbf b93f
00000180: f9bd 6ded 3ad0 c93f 30b3 220b 46bb c33f
00000190: 95a1 f707 9f11 cd3f dba5 8ea8 61c4 babf
000001a0: b3d0 636e 69f5 cbbf 8f65 1d69 2284 a2bf
000001b0: 1b2d ed52 1e95 c83f 8e30 540e 8b8b ba3f
000001c0: 2fbb 942b 572b c8bf 596b 94ca 1099 ba3f
000001d0: 8a4f 3a3b ea96 c53f 3e4c 8bbc 1bbd b7bf
000001e0: 3177 9725 f44f c43f 5944 43c7 84fa b93f
000001f0: 892e 7ee6 9cdc cdbf 941d cf0a 4eb0 bfbf
00000200: 17ba 548e ea23 913f 3ac0 1cd7 8a83 c93f
00000210: 41aa de95 178a bbbf 5223 7fec 0f6a 9ebf
00000220: f8ce 04ec 0b66 a3bf a2e2 af55 28ac b2bf
00000230: fc27 4ecb 7cfe b6bf 7b1a 4144 771a 98bf
00000240: c85d 1618 2007 babf 4963 6b5d 20d8 c5bf
00000250: 4d0d 2de8 c6a0 be3f 65c3 7a35 3586 ce3f
00000260: f822 e0bc 83b7 cb3f d597 c127 3890 c8bf
00000270: bf9a dac3 3c7b ab3f a9d7 3478 ca16 96bf
00000280: af0d c5d9 5bb4 b23f 2f8c e483 8fa1 90bf
00000290: 92e6 6814 0e80 b1bf 71b7 dcc1 d407 cb3f
000002a0: 6536 dde9 e1c0 b3bf 57b4 1d10 0804 c03f
000002b0: 4094 c060 8189 c7bf 80e8 d3f4 f36f c53f
000002c0: 77f6 2a8d dc41 ce3f 0fa3 d26e 9294 c4bf
000002d0: f25e aa64 18e8 bb3f 6618 f78d 8d0a c9bf
000002e0: 004a 1727 1407 9bbf 949a 8864 93c7 cbbf
000002f0: a2f9 8c04 6f14 cd3f c01f f585 c928 c33f
00000300: ccfb 9184 92e0 b0bf a4be 3ffc f81d cdbf
00000310: 4177 7cdc 44c8 cbbf ac4a f4ef b3ed cabf
00000320: 138c 04c7 00ca c5bf 8ebc 3ce8 8bb7 ca3f
00000330: 2153 c44b d5e9 c23f be02 868f 73ac c3bf
00000340: 89a2 e4f8 1bea c43f 39ae 71e7 4e45 c23f
00000350: 097f 9790 a778 c0bf 7f89 e98c cc6b a83f
00000360: 1b83 87a1 b367 bebf e541 fff1 5cf0 c7bf
00000370: 0919 f2b7 f576 cc3f a4c1 65b1 9fbb b3bf
00000380: da07 961f 5a0f ce3f 43e1 cd1b 4e61 cabf
00000390: c185 968a 6ac7 bd3f 7099 6cf7 641e c4bf
000003a0: 77ac d637 a2be b93f 3178 7193 1c8f c23f
000003b0: 19e2 a222 c3e1 c6bf 559d 05b8 1805 b8bf
000003c0: a82b 640a 759a c63f 5359 15bd 5538 9a3f
000003d0: ffb2 3a5e 2cad b73f aef6 7ead 2e0e cbbf
000003e0: 7697 4d9e a75b b6bf ff05 680c c680 c4bf
000003f0: ad70 d544 326c b73f f4f5 2b44 d0c8 b53f
00000400: 1996 2100 710d c93f 24cf fb8e 27a6 c5bf
00000410: b6de 5522 0a12 b53f f7db 88ae bebc ad3f
00000420: 1820 13f4 9e0d 1dbf 9256 9e5c fb94 c63f
00000430: 6ebd 5091 ebb8 c4bf f13f d365 9495 c63f
00000440: 645b 10a1 b8d2 c03f 392a 674b 28fa ae3f
00000450: 8a7e 6206 703a b53f cf2e c0ed 9f4f 973f
00000460: bc2f e3da f105 c53f 6dbb 9d32 f2c2 c0bf
00000470: da16 b3c1 5a6c b7bf e527 47aa 5b78 bcbf
00000480: 92ab f440 308a b1bf 7d68 4449 1657 c8bf
00000490: cdf6 b999 a802 88bf 3356 67c4 46dd c43f
000004a0: 01fc 5192 70a7 bbbf 691d 85ad 9cce af3f
000004b0: 5800 f459 55d2 ac3f 376e 149c b949 b83f
000004c0: d0a1 ca4d 6eb0 c53f 6869 2389 e300 cabf
000004d0: 93e7 dfed 1dd6 c73f 3d1a f7ef dd51 b23f
000004e0: dcc2 4e23 bd3d ca3f eabc eaed b392 ae3f
000004f0: d68d 9b1a 72d7 c53f ef3f 9d4c a678 aa3f
00000500: 40b3 1350 b8a8 a0bf db76 497b 7c47 c3bf
00000510: 5206 f205 14e4 c93f c9e6 e431 e7d8 b2bf
00000520: 32b8 3b07 6243 ccbf ce9e 82ef 7c1c bd3f
00000530: 84d1 4459 8674 7d3f c9ee 878f 723d cbbf
00000540: 5284 7015 742d 5bbf 1dd9 5e63 4765 b33f
00000550: a2a6 2069 9c49 aabf 17d5 3961 8333 c9bf
00000560: b231 3e41 eea8 803f 173b e19f d3a2 a53f
00000570: cb07 57d7 0f5a bebf 0c39 1b6a 1899 ccbf
00000580: 0626 c496 c1b3 cb3f 8ac3 07b6 23bb bdbf
00000590: 2bf3 7511 32c4 aabf 65df 7ec3 361c a23f
000005a0: 93b9 cdc8 ee52 b2bf db8a 9c4b 9b99 8dbf
000005b0: 2e44 c07a 9ef6 c23f ddd9 3761 28f8 6d3f
000005c0: 2ddf 3759 2e88 9f3f b2ab f43b 3a9f c43f
000005d0: 9db0 9bca 8bf2 c83f ae80 db24 c620 c83f
000005e0: 5f29 81e7 0aed adbf 40c4 1849 d9a0 98bf
000005f0: f76a ef32 7a74 9bbf 5050 bb07 b3fe bcbf
00000600: 9678 e327 7559 aebf 2507 18aa b81a c7bf
00000610: c735 db8b 4756 ad3f 7a13 b12d 3a07 913f
00000620: 75d3 1a97 4dd1 b5bf 1eec 1ee1 a40b adbf
00000630: a0d9 e795 7aec c93f f39b 9a79 77ce c33f
00000640: 955c cbc2 2f0e ab3f 96d6 3003 9f00 bdbf
00000650: da06 e8c2 bbde b23f 285f 13f3 4aa8 b03f
00000660: 5a18 6772 99e7 b53f e279 d025 7741 a53f
00000670: b203 8555 edb2 a03f dfe8 113f b211 b73f
00000680: 309c b244 5dae b83f ef98 8b03 426a b53f
00000690: 7642 75b9 a59c c63f ee3b 2f50 6709 b1bf
000006a0: e722 1fbb c2e2 c93f 729e 2659 25cb ae3f
000006b0: 6443 c110 65a4 cebf 0bfd 7a50 0e58 9f3f
000006c0: c1c4 ecbb 93d8 ccbf 8f7e 387a 23f9 bcbf
000006d0: 7676 5031 eed9 b1bf aaf6 8345 a2ea c5bf
000006e0: 31e2 86d4 1746 ca3f 10cb abc0 739e c1bf
000006f0: a985 4fca e4a5 c7bf b27a 8eac 67e6 cb3f
00000700: 7304 b231 2911 c93f 74b3 beb5 0f17 ba3f
00000710: 3293 8c7b b771 c7bf ea88 1b00 94df 52bf
00000720: 04d0 fec9 aa19 c1bf 2140 97bd dc6e c13f
00000730: b25f 1119 4325 cebf a54f a828 c413 bfbf
00000740: 7638 4892 f713 adbf c5ca eeb1 9e18 c43f
00000750: c1d8 435b acaa b33f d85b 7497 ba91 ab3f
00000760: 2e5b 4fd3 54a5 c13f 0153 e4d0 0592 b83f
00000770: a73a 0854 e1d1 c13f 314f f688 ae3d 8a3f
00000780: 9a3a 08f4 41be c6bf 0826 9712 2a35 97bf
00000790: 9fdd c518 e527 c33f b6e9 7e02 14ee cbbf
000007a0: 73cb 7720 322e b83f cbda a30f fe11 913f
000007b0: 44cc 67e3 fbb0 c03f 9fff 3f85 2c6c c93f
000007c0: c8bf 6cae d561 c13f 8970 80c2 3a59 9abf
000007d0: 3a8d 7068 5ebe b13f 42f8 e52f ca70 b23f
000007e0: 1ed8 a805 e278 c63f 7cd0 4330 d82b bcbf
000007f0: 4137 1e88 24be adbf 84d9 f7f4 85c0 b1bf
-0.18523195641396842 0.1894258574127421 0.12003332026858705 0.03555465922802158 0.2080623383297031 -0.23073020345079684 -0.008234889871815322 -0.05652315282460811
-0.1649561877657818 0.17682595442747365 -0.117135650630507 -0.17750528262306967 -0.03768733919087801 0.06310419506033495 0.04831151357586553 0.21238417989949573
-0.052212924610022984 -0.22074904112840915 -0.06571473713518401 -0.0751424490511283 0.12003113636836633 0.014404057282886648 0.2059315837693392 -0.21334171032977223
0.0237285776646439 0.03799636909529509 0.15305303168640408 -0.014878645000586171 0.09673047331296299 -0.09988689544531196 -0.09079625017096872 -0.05571636224382832
0.03022779001651709 -0.08073928287027286 0.06692844176271803 -0.012628662855975931 -0.10626157837936234 0.23260033773129965 -0.020081486833646463 0.16106645698172264
0.17525751167639064 -0.22051649361386558 0.06345391536750136 0.05406580801129978 -0.11613442113838934 0.19075805430373075 -0.1252689937342705 0.10057638010085085
0.20166718095013872 0.15415263694503656 0.22710025681523108 -0.10455904355207883 -0.21842687502033228 -0.03616435559406305 0.19205073403495806 0.10369176006151035
-0.18882264736154172 0.10389809556765552 0.16866805927258738 -0.09272931435707307 0.15868999324350733 0.1014788614732124 -0.23329507116828932 -0.1237839485539694
0.016738572060768755 0.19932685378580733 -0.10757586869173343 -0.02970147019348996 -0.037887928543936356 -0.07293941585511246 -0.08982067073353045 -0.02353845934001207
-0.10167122448034782 -0.17065815507410267 0.11964076202734937 0.2384706984644495 0.21653792116583026 -0.19190122548314884 0.053674601467084575 -0.021571315371339193
0.0730645567573933 -0.01624130480298563 -0.06836021421704633 0.21117648569036931 -0.07716190299580601 0.1251230314914291 -0.18388383125525998 0.16747903303604872
0.23638493435821648 -0.1607840577246624 0.10901024301199039 -0.19563455039878191 -0.026394190679477347 -0.2170280686270486 0.22718608591271755 0.14968222657102892
-0.06592670189455346 -0.2274771911320289 -0.2170492245285747 -0.21037911621586625 -0.17022714345611742 0.20872639503202034 0.14776102256350845 -0.1537002993391265
0.1633944478319516 0.14274011898975106 -0.1286820846571504 0.04769744129295627 -0.11876986211383349 -0.18702279869331942 0.22238036615107884 -0.07708166199677763
0.23484350721633868 -0.20609451635005813 0.11632409938331191 -0.15717756348858414 0.1005650888752586 0.14499242019059147 -0.17876471701835397 -0.09382776730273197
0.17658865935694945 0.025605525651678573 0.09248616505164974 -0.21137031051141747 -0.08733604063817588 -0.160179859216484 0.09149469547759521 0.08509542145107912
0.1957226992264374 -0.16913313371298344 0.08230651224391292 0.058080633931631036 -0.00011082918810523289 0.17642156622303112 -0.16189331622579622 0.17643980953152963
0.1314307009167478 0.060502299503771124 0.08292293697240374 0.022764681707527153 0.16424391925681714 -0.13094928237429873 -0.09149710873597475 -0.11121151835609984
-0.06851483903726166 -0.1901576860189528 -0.011723820868833635 0.16300282087347426 -0.10802367756149069 0.0621231996361143 0.05629221652088806 0.09487495480100781
0.16944674299635532 -0.20315212436873797 0.18622182955715214 0.0715616904118201 0.20500911926276089 0.05971300391444763 0.17063738154602842 0.05170173344833972
-0.032537231230753694 -0.15061908740874838 0.2022728947668378 -0.07362217872732936 -0.22080636361300915 0.11371594283502448 0.0071912048336354485 -0.21281272896145811
-0.0016587861662247416 0.07576414276158912 -0.05134285720153044 -0.1968845581756475 0.0081347097073142 0.04225789381654559 -0.11856173522303874 -0.22342209988568873
0.2164232240832435 -0.11613677209949294 -0.05227810347694225 0.035371505130966686 -0.07157795336181598 -0.01445313763139693 0.1481512164469065 0.0036583698908956145
0.03079292697472551 0.16110923697973828 0.19490191834427587 0.1885001831024104 -0.05844911647780537 -0.024051089369269585 -0.026811513289298507 -0.11326140345346514
-0.059276257628640014 -0.1805029707466527 0.05729888517599196 0.0166291323078158 -0.0852249616535355 -0.05672946212822459 0.20252926177608988 0.15473836362545476
0.05284260990964033 -0.11329072788142933 0.07371114262061998 0.06506794390167825 0.08556517642054598 0.04151508652306625 0.0326151053327587 0.0901137737254518
0.09641058852376783 0.0836526163726352 0.17665549808090802 -0.06654973704938502 0.20223268639372025 0.06014363015429759 -0.23939193075286902 0.030609344160208923
-0.2253594081499042 -0.1131765530958495 -0.06973160461390102 -0.17122295755682632 0.20526407124795434 -0.13764807613150554 -0.1847501743168725 0.21796890187848345
0.1958362095502114 0.10191438853389717 -0.18315785916015553 -0.0011519379917719849 -0.13359579909376873 0.13619574792255754 -0.23551214908615986 -0.12139535896886729
-0.0567929616992026 0.15700133979915712 0.07682301738882115 0.0538461980706228 0.13785801236982692 0.09597812986278244 0.13921753504879072 0.0128129611537485
-0.1776812020838932 -0.022663743385953367 0.14965499600996865 -0.21820306894171687 0.09445489208864703 0.016670198158830012 0.13040112117559677 0.19861370569560408
0.13579817787967685 -0.025731008645479867 0.06931104707523597 0.07203353566544116 0.17556405330987074 -0.11004401377050671 -0.0580912986907678 -0.06934392195385014

fc3.bias f8 [20]
00000000: ef4e 295f fb0e c6bf c243 beca 3362 c53f
00000010: ee9e 230b 9d69 a23f 90e8 49f1 2142 bfbf
00000020: 1aca a532 dd2e bd3f 87f3 7dc9 1214 98bf
00000030: 07ee ac61 488a 7fbf cb0f f26e 427f ce3f
00000040: c263 dfc9 bc6d b3bf f34e 93f8 f1c3 c93f
00000050: fc86 a4ec 0e26 c1bf 876c 9ea0 42a2 c23f
00000060: a561 bb1b de0a a2bf 49f7 2e5a 7494 c43f
00000070: 26ea cd86 8379 cabf aa7b 9c17 d319 cdbf
00000080: 9ebd ee39 587c c4bf 1832 f8d0 6e0c c5bf
00000090: 1b2c 7481 169b a23f 84ad cf18 f518 ab3f
-0.17233221193838896 0.16705939673968656 0.03596201668716313 -0.12210285321080705 0.11399633871568718 -0.023514073894591838 -0.00770023607293125 0.2382586518980346
-0.07589321068316138 0.2012922729251084 -0.1339739470941409 0.14557679026333778 -0.035239163289307464 0.16078047183503433 -0.2068333061432252 -0.22735060360807086
-0.16004469708194063 -0.16444192126836366 0.036339476873841835 0.052924784926143636

fc4.weight f8 [24, 20]
00000000: 5c54 8312 b1e4 a2bf 200c b153 38be c9bf
00000010: 7554 2937 d918 bc3f 1b4b 63c3 8569 8fbf
00000020: 6f34 e6d8 cb2a c43f 2dcd 6a6a e79f bd3f
00000030: 315c 3cdb 00b5 b2bf 3cdb 337d 9342 b0bf
00000040: 1aad 3b45 9e72 c1bf 017a e359 c787 b7bf
00000050: 64ad e5e0 4d7d c2bf b09c bea7 f500 c23f
00000060: a6b0 91f6 6141 9ebf 24e2 3853 e8f4 b23f
00000070: e111 7032 a075 c1bf e4c4 bf62 48e3 b1bf
00000080: 588b e5c6 26a8 c13f b179 f9fb 8a71 ac3f
00000090: 01c9 49a8 70c6 83bf ccad e65a 93b0 b8bf
000000a0: 7591 8b32 56d1 8ebf 8db9 28c8 2d2c 803f
000000b0: 8c61 af4e 4d70 c1bf e0a7 2b84 bdb9 ca3f
000000c0: 8259 e8a7 4027 a33f 859f 203a b1af b73f
000000d0: 2bab 76d4 b62e c9bf d5f5 5aa4 f4c7 be3f
000000e0: bc96 d4e0 b250 c13f 3429 2810 3d2b a5bf
000000f0: 43dd dd22 b70d bcbf 2cd9 2107 0478 c23f
00000100: 7156 a9c9 f66d c83f 33b5 6925 a537 c63f
00000110: ca3c 10ff 9f60 a0bf caa5 cab8 61cd b3bf
00000120: 0ee1 01f6 4619 c83f 6d97 c5a9 f04a 983f
00000130: caef 3493 bb23 8e3f 4847 eada f202 b9bf
00000140: 3c69 58cb 022e cb3f b2fc 87aa 8d0d a3bf
00000150: 37c4 b694 d403 c0bf 8726 6575 7979 a33f
00000160: c9f7 9245 eee6 c33f 5d73 5263 80c7 c3bf
00000170: 3797 9cc0 f114 c0bf 40d0 f160 0ff3 9ebf
00000180: d2aa da61 b994 adbf 0487 b3dc a6be 353f
00000190: b8ff 0879 0d56 b0bf ba48 a3bc 125d ab3f
000001a0: f207 a1d9 83e0 c33f 07ce 870d e671 c23f
000001b0: 4bcc 4cb6 03c1 c8bf 5f73 dbed 1ccf 79bf
000001c0: 4f43 0d16 ccd3 b3bf 15ef 5ff6 91c8 c7bf
000001d0: fb18 ac6e 55e8 c03f 37c1 ec7a 03dc a3bf
000001e0: edb4 df51 2e65 bbbf 544a e165 3a24 963f
000001f0: bb04 7621 6a6d c3bf 1525 d856 753d c5bf
00000200: 38a0 c448 2c81 b7bf 14ff 57da 18e1 873f
00000210: 1618 29e0 5e99 b7bf 4d95 c402 35ce b8bf
00000220: b17d 7e53 2a13 c33f 57d3 5ba0 83c0 9ebf
00000230: ab06 02fd 69cc ba3f 5313 18ef 7797 8b3f
00000240: acc0 ed53 096d b3bf 5339 45c8 e6f9 c33f
00000250: 9f8d e771 6a95 b1bf b96c 15d0 8a86 c9bf
00000260: a245 59e5 34d5 383f 6603 9345 6a1e c03f
00000270: 77b2 da4b b840 c3bf 0b91 a414 babb b73f
00000280: 7b46 ded8 c174 cbbf 2150 92e8 3696 be3f
00000290: fc1b e4f3 6d48 b93f 2e24 18db 2dea c3bf
000002a0: 1952 863b 9cd2 a9bf 331d b4bb 501f b23f
000002b0: 409e a36f 66be b73f 51d3 8097 1531 973f
000002c0: ee87 675f 0712 9a3f 7baf 09d2 7c43 c63f
000002d0: d397 0de7 9a64 c83f 0734 d8cb 1070 af3f
000002e0: bdb2 5733 8c62 c9bf d780 17b3 e3fd c63f
000002f0: a65b aa93 03ba aa3f acbd e394 11be c9bf
00000300: 0aca e9e0 b264 22bf 31ad 9913 47a9 c53f
00000310: 8ecb 8a42 1e9d c4bf 6413 1ea0 f2e4 bebf
00000320: 1f59 f22a 6c4a 863f 9dc8 4a33 1b1c c3bf
00000330: 9315 694e 88a3 aa3f ecbb e542 0d43 cabf
00000340: 14ef 642b a462 a9bf 14dc 46dd 8715 c53f
00000350: 53e6 0b03 c6ad c43f 4f01 84b4 d6e9 c63f
00000360: a4a2 a223 7e94 c73f 550c 8b8c 1d76 bd3f
00000370: 4d58 e171 4f85 94bf 3a0f 879c 1367 8b3f
00000380: 2405 9cc3 c427 c23f 1daa 2702 3f50 97bf
00000390: 9be7 56d1 f7e4 a83f 81fe 15b9 6be2 c1bf
000003a0: 1777 f4f5 6ca0 c53f 5d81 f57a e4e3 c7bf
000003b0: 7b02 e6d8 3354 c03f dba2 eaf1 9490 c0bf
000003c0: 4a18 6a6c 7d3b a53f a0e8 020c c1d5 a0bf
000003d0: de70 7e7d 8e9d c83f c810 f91a 6f54 c03f
000003e0: e957 82a8 812d c9bf 3969 e3df cd83 c7bf
000003f0: 7a56 2552 16ab b13f da26 e20e 05cc c1bf
00000400: bfbd c310 f964 c3bf be6e 66f9 08be bc3f
00000410: d8c6 7304 b96c b73f 06bd 60fe 0c52 c1bf
00000420: aa75 2271 f90d c6bf 195c e9ec 01c3 bcbf
00000430: eed8 f0a8 bcaa a3bf 4596 a96d fd46 ccbf
00000440: 6a9e e709 43e4 c0bf c81b 202f 9e9c c83f
00000450: c4c0 fe27 e2af c4bf 8b52 5271 3c27 bb3f
00000460: 13fc 212b db7a c4bf c095 7d9e a6e0 9d3f
00000470: a25a 9af8 73b9 a6bf 2c57 d17d 17f5 c73f
00000480: f205 f238 1209 ba3f f558 0bc8 656f 90bf
00000490: 1d4f df8c bb08 c1bf f647 053d e6af cabf
000004a0: e574 bce6 ecba c0bf 9a77 4f29 d394 9b3f
000004b0: 2ae2 cf25 3480 c8bf a621 61ca aecd bdbf
000004c0: eb79 5c8a 9ce3 93bf c781 a3ec ad04 c2bf
000004d0: fde5 e07f 4694 b4bf 151b e9db 2cbe a73f
000004e0: 1857 eed1 9a24 a53f 35af 9aab 0c46 b9bf
000004f0: 4053 b030 9fcb bc3f 0ad3 ff87 b1b8 c3bf
00000500: deea da0e b14b 823f 65da a100 5028 ac3f
00000510: 8358 de78 6bf9 babf 2157 eb7a c9d1 c2bf
00000520: 8f08 f079 2aea 863f 1ca9 32e6 039b a6bf
00000530: 215c 08a9 4fb1 94bf 1586 d978 754c a43f
00000540: 7171 dd62 c130 babf dedd be92 53e6 c0bf
00000550: 1db3 3330 d6b4 1c3f 5ae0 7131 d26b b5bf
00000560: b0fc d387 9fdd cbbf 51eb 6e23 86c9 bbbf
00000570: 6fa0 edcd 2feb c33f ba29 d6d6 b541 ca3f
00000580: 0639 49ce 0ab5 a2bf 0da9 37a2 ddb8 933f
00000590: f052 b837 c146 c3bf e772 6775 82cd 903f
000005a0: 4f73 ffba 16e4 c0bf 7c4c 31df ee16 b43f
000005b0: e6af 2f25 d74f b03f 8ea6 f62f 615a c63f
000005c0: eb2a 5bb5 b071 c53f 71c8 c07c 7cbc c03f
000005d0: 9836 45b9 d6c6 c73f 5ee7 a8a4 eaa7 b9bf
000005e0: 4d47 7edd cf05 bbbf 94bc e3ee a001 c9bf
000005f0: 5110 67f4 0adb bf3f 722a 0c94 d4ea c7bf
00000600: 0afd 5e0f 69c7 babf 2730 fa8d 6125 a7bf
00000610: 32b9 6ad7 fd0c cbbf 22f1 ae28 a0cc a63f
00000620: 0163 0624 32c6 b4bf c5e1 6a1f 5d7c c73f
00000630: c51d 5439 6ff4 c1bf ae94 3868 e7da c93f
00000640: b07a 2b4d af1c c1bf 524a 455c 1580 c33f
00000650: cecf ffd9 ecb0 cabf 21d0 44f3 65ad c5bf
00000660: 4785 e024 efbe c53f ba0a 1ff7 d27d ca3f
00000670: 1e07 ac10 5911 c43f 0213 284f 17e4 ab3f
00000680: 8fc9 fbe8 2bf2 9ebf b4ae 9155 de40 be3f
00000690: a0a0 c86d f6a5 ad3f f5a1 7c50 a546 c73f
000006a0: ec03 0248 d322 c4bf 2ff8 aa56 48af c1bf
000006b0: 2b4e f11c 91b6 b63f 7179 1b74 404b a5bf
000006c0: aaef 3694 328f b5bf 793f 3f3a 4a9c c6bf
000006d0: 33d1 cd88 a5c1 c8bf 93ab fa90 48db c3bf
000006e0: b4b4 6413 81f9 c3bf c134 275d 46ad 7c3f
000006f0: 864f efaa 4933 a23f 8fe8 2345 42a1 b7bf
00000700: bb5c 3958 6d08 cbbf 183e 6ac9 3603 b33f
00000710: 0100 c877 c5d0 bfbf 3ee6 6cd7 8d9c c0bf
00000720: 9ece 1c8e 40ac c33f ce7b 9559 622d b5bf
00000730: eac2 994f aa21 9a3f 4837 68b3 83d8 b1bf
00000740: 6e1e 8273 aba0 84bf 48a7 a698 3a98 c7bf
00000750: 6ee3 dfe1 34c5 bfbf d928 4b0e 603a 7e3f
00000760: 3ec0 8d9d 5076 97bf 522c 6404 12ae b3bf
00000770: 0954 e753 84ea c23f 8eca 771b ab9d 7c3f
00000780: 386f 9962 449d a3bf 8907 5c35 44f3 b4bf
00000790: 4c30 190e 1715 aa3f 8968 2fa8 98a6 b73f
000007a0: 60a1 c45a 9f1f ccbf 3130 816a 0f7a aabf
000007b0: 5cb1 d3a8 10e7 b93f 453e c3bf ca37 c8bf
000007c0: a771 d111 5356 ae3f 110e f997 1af4 c73f
000007d0: b48d b2b2 129f 63bf cf73 fdaa 38ae c43f
000007e0: b29d 1017 f42e bc3f 3242 8abe aa04 c5bf
000007f0: aec6 f30b 047f c5bf ad47 c24b 792e 893f
-0.03690102911938517 -0.20111755453589897 0.109754157988691 -0.015337986970199993 0.157556038768607 0.11572119091106421 -0.07307439186512067 -0.06351587111190055
-0.13631037121317818 -0.09191556877656383 -0.14444898110682935 0.14065428438809624 -0.02954629008711209 0.07404949218551643 -0.13640215361387134 -0.06987430964342739
0.1379440756964765 0.05555376363621479 -0.00965583814215565 -0.09644432992234114 -0.015047715585247737 0.007896764441366578 -0.13623968450589208 0.2087933440555494
0.03740884828237069 0.09252460164191063 -0.19673810362049812 0.12023858082371615 0.13527523019836518 -0.041345508787417634 -0.10958428002583269 0.14428758953335696
0.19085583540679665 0.1735731537513999 -0.03198719013755065 -0.07735262643350108 0.18827139865948833 0.023723373758364575 0.014716592245001343 -0.09770124287231596
0.21234164170238923 -0.037212779108807395 -0.12511689435408055 0.038036151485880736 0.15548494717762498 -0.15452580308638178 -0.1256391706930857 -0.03022407559588225
-0.0577753002119913 0.0003317983034333146 -0.06381305890044942 0.05344446709354274 0.15528915525834425 0.1441009107653459 -0.19339033509604273 -0.006301033977902686
-0.0774505189740584 -0.18580841569916431 0.1320902624503971 -0.03878794551417502 -0.1070126485717144 0.02162257429911059 -0.15177656778181423 -0.16593806019253834
-0.09181477333606913 0.01165980736095621 -0.09218399975461042 -0.09689647023750077 0.14902237965450874 -0.030031258261220852 0.10468161036444694 0.013472496971198266
-0.07588251399079365 0.15606388834789672 -0.06868615418311784 -0.19941840324722707 0.0003789190426220728 0.1259281959264868 -0.15041259483168165 0.09270823482490102
-0.2145006474425378 0.1194795911599731 0.09876143650409114 -0.15558407972301452 -0.05043495394344095 0.07079033453566268 0.09274902558865339 0.02264817940904901
0.025459399412177612 0.1739345574927674 0.19057022363557383 0.06140186775528638 -0.19831993586503485 0.17962309117047567 0.05220042398030182 -0.20111293573380118
-0.0001403301580072544 0.16922844368978354 -0.16104486703042337 -0.12068096551054236 0.010884137211445264 -0.14929523472307418 0.052028903552620374 -0.20517125860666796
-0.049580698296692344 0.16471956543475186 0.16155314587358535 0.17901119055023648 0.18421913852696037 0.11508354836682717 -0.020039788556765626 0.013380196775763065
0.14183864165537685 -0.0227670521798392 0.04862188749707671 -0.13972231423757722 0.16895830163496647 -0.18664222720964121 0.12756965723749034 -0.12941228687602443
0.041469497188743334 -0.03288081428168366 0.19230824592239676 0.1275767213538812 -0.19670124748216658 -0.18370984489485823 0.06901683335794387 -0.13903868891457344
-0.1515189487322299 0.11227470482702537 0.09150272711465435 -0.13531649037165766 -0.1723014643111303 -0.11235057863210364 -0.03841199457422016 -0.2209164414845636
-0.13196599944716364 0.19227959919973459 -0.16161753609549667 0.10606744543685857 -0.15999927145091472 0.029177287505623317 -0.044383644196547736 0.18716710704273376
0.10170091524380334 -0.016049948057877256 -0.133078998360923 -0.20849302272341647 -0.13070451036848066 0.026934909244907247 -0.19141246649066207 -0.11641972008613397
-0.019422956414126984 -0.14076780371307349 -0.08038750288041992 0.04637279686408228 0.041294897199959546 -0.09872512044483701 0.11248202265444451 -0.1540738977488661
0.008933432832568252 0.054995060040643286 -0.10536834431545299 -0.14702719213408336 0.011188823553315323 -0.0441514223578727 -0.02020763844674545 0.03964583492485133
-0.10230644859024608 -0.1320290056735151 0.000109506199851683 -0.08367646891736183 -0.21770090229253958 -0.10854376187391536 0.15561482958878822 0.2051303195006094
-0.036537492448234274 0.019259894395795608 -0.15059676380828746 0.016408956924226194 -0.13196071749453117 0.07847493123090205 0.06371826799266919 0.17463316766707176
0.16753205161361193 0.1307521447320741 0.1857555775299502 -0.10021845359815759 -0.1055574336772029 -0.19536220230609003 0.12443607775554823 -0.18685395459063475
-0.10460526108999005 -0.04520706995126061 -0.2113339711990619 0.04452991959212428 -0.08114922885432564 0.1834827807813452 -0.14027204798934015 0.20199291790882995
-0.1336878897481788 0.15234629636195735 -0.20852432865615217 -0.16935419443473257 0.1698893480361596 0.20696484629123352 0.15677941621839236 0.054474571621574
-0.03022068604963973 0.11817731465424225 0.0579068192494685 0.18184343748113432 -0.15731278434762375 -0.138161699598585 0.08872324902159139 -0.041589750455147796
-0.0842162715770757 -0.17664459079832875 -0.19340962581521523 -0.1551295001894145 -0.15605176398222442 0.007001185282615897 0.03554754459005864 -0.09230436504359062
-0.2111946755200956 0.07426779191359179 -0.1242793481287663 -0.12977765101259026 0.15369421900833385 -0.08272375762088233 0.025519047840535082 -0.06970999841743464
-0.010072078192265379 -0.18433315709745046 -0.12410288347736095 0.0073798896962193545 -0.022912273041072455 -0.07687485320291046 0.1477818879781412 0.006986301792027872
-0.03830922797780406 -0.08183695128175662 0.05094215437984015 0.09238580804904663 -0.219715041466098 -0.05171249556642044 0.10118202325583553 -0.18920263636981552
0.05925235359675023 0.187136959271911 -0.002395187873462235 0.16156681393741087 0.11009145320041716 -0.1642049246188591 -0.1679387148247335 0.012295673012235964
