models/supervised_model.pth (torch, 5218 bytes, 5 tensors)

fc1.weight f4 [16, 30]
00000000: f4f1 173d 8f79 173f e768 ea3d 9174 5d3e
00000010: d343 9b3e 6cef 26be e4da 9fbd 2b74 ae3c
00000020: 6a5d d3bd 2cc4 7f3e a0c8 5fbc 38cf 0fbe
00000030: 7371 f33e 417d 01be b047 083f be84 843d
00000040: 4fe8 35ba 4eb3 a8be 2f65 debc 1bb0 043e
00000050: 2019 293e f423 3d3e f94a 2cbf 5401 1abe
00000060: 9436 2a3f e681 e8bd 38da 173e 2530 cb3e
00000070: 1679 b5be bd28 9aba 1c66 3a3e 61f5 583e
00000080: 2446 873e ad4b 9cbd f590 bd3d 5af3 ab3d
00000090: 58a0 a4be f173 1f3e 375a 073f a5f1 a53e
000000a0: 82a1 f53d 37a5 5bbe e023 fd3e be45 3abe
000000b0: a69c 933e 4040 c93e da6b 96bd bbab d73d
000000c0: ab46 38bd 9f56 94bd ea50 1bbe ce42 1bbf
000000d0: 125c e33d ed9c 113b 3081 e83e f0cf 2ebe
000000e0: b57f 933d 2000 3dbe a1d7 92bf d9bf 7abe
000000f0: 7f85 c4be d06f 80be 8d11 28be 5aaf d93e
00000100: ed3c d8bd 57a8 4cbe 2f56 f83e 44a3 24be
00000110: 3089 973e 95cb cdbe 0072 9d3e f3ee 09be
00000120: b55e 313f 45f8 8bbe c81e be3e f1e2 48be
00000130: cd75 e33e 6893 cf3d efea 2cbf 39de 97bb
00000140: f623 623e 1157 b43e 680c 90be 6feb 69be
00000150: f399 a33e 48f5 a03e bc60 203e d165 913e
00000160: 4bd9 98be adb4 a13d 988d e53e 1625 0dbf
00000170: db04 353e 9137 c83e f0eb b6be 0c2a eb3c
00000180: e922 1e3d 9085 3e3e 31d2 d23b e831 11bf
00000190: b085 1c3e d78a d4bd 9875 8e3e 2e4a 8d3e
000001a0: 56b1 4c3e ec25 e6bc 348f 573e b41b 72bd
000001b0: b445 683f 6fe9 0c3d fdaa d23e 8b21 923e
000001c0: 68fe e9bb 5e88 c9be 8b33 1d3e 9c09 f73c
000001d0: fc5b bf3e 65bd f23e 4d4d 733e 57dd 803c
000001e0: 3997 1abe 1f92 81be 8102 85be 4af6 bd3e
000001f0: b959 23bf f80b c63d 729c 783d 7ae1 0f3e
00000200: 4adc b63d fa65 573e e12d 773d 5c7b 8abe
00000210: a77e d53e 3a11 953e a4dc 3bbe 48eb 18bf
00000220: 8c2e 933e 1b1d 8c3e bebc f2bd 5e77 06be
00000230: 7b61 553e 8938 83bd b975 ac3e 5a62 2bbe
00000240: f132 0dbf 6564 e13d 329c 453f 0f31 a1be
00000250: 0d33 a83e 6c77 933d 6fe6 9bbb 97e9 ea3d
00000260: 95f9 1d3f 74bb 03be 07fd 01bf aeb7 1f3e
00000270: 8484 5fbd 3e0c 8d3e ceca 5e3c 817b 45bd
00000280: ea0b ca3e b059 513e 4e2b d13d 5e57 fabc
00000290: 3801 7b3e 6692 1f3d ede6 69be 62a8 c93d
000002a0: 4788 383e c56d 753e c641 503e 3100 6dbe
000002b0: 6836 bebd 921f 893b bad4 d8bd 9c03 f6bd
000002c0: 1b1c a7be 880f f3be 1b2a f6bd 1fcd 27bf
000002d0: 5a76 113f c017 72bd 2e23 ed3d daac 943c
000002e0: 3693 e33c 2174 37bd 2e77 773e 840c d93d
000002f0: 3003 183e 42ae 34be e3c3 46bd 42c3 22bd
00000300: a36f 9f3e 71ae c93e ca16 e93e c2c5 353f
00000310: 7775 4f3e 4858 003e 2737 093f 82f9 bdbd
00000320: f887 233d ee34 0fbd ba51 71be 42b5 eabd
00000330: 9aa7 d1be 27b6 75be 728b f1bc b6b0 053f
00000340: 511d 2fbf 9c31 f4bd eb88 873e 72ff ffbd
00000350: 2a64 9abd a054 3c3e cd6e b8bd 4cf6 41be
00000360: 0bb1 a83d bdb3 3abd 7f91 9c3e 53cb 4d3e
00000370: 94f5 db3d 4234 0ebd f2d6 c93d 3388 22be
00000380: b446 973e 40df 96be bc36 7b3e f7c6 a53e
00000390: 70fe 2cbe 42b4 f73d b2d3 46be 4c4e d6bd
000003a0: cb04 febd 39ab c03d 55e2 0cbf 0b63 b93c
000003b0: a357 ec3e ae4d 3cbe 00ce b5bd a5d2 3f3d
000003c0: ab72 a9be bd42 4e3f 50ef b6be 4cd3 2abe
000003d0: 138e 1abf ad8e b5bc 5394 91bd 80a9 72be
000003e0: 9832 cdbe 7669 86be 31bc 4e3e 609c 983d
000003f0: cddc 0c3e b73b f3bd 8feb 413e c596 30be
0.03709598 0.5916986 0.1144579 0.21626498 0.30325183 -0.1630227 -0.07805422 0.021295628
-0.10320552 0.24977177 -0.013658673 -0.14043891 0.47547492 -0.12645437 0.53234386 0.06470631
-0.0006939219 -0.329493 -0.027147857 0.12957804 0.1651349 0.18470746 -0.673019 -0.15039569
0.6648953 -0.11352901 0.14829338 0.3968517 -0.35443944 -0.0011761409 0.18203014 0.21187355
0.264207 -0.076316215 0.09256164 0.08396025 -0.32153583 0.15571572 0.5287203 0.32410923
0.11993696 -0.21449743 0.49441433 -0.18190667 0.2883045 0.3930683 -0.0734479 0.10530802
-0.04498927 -0.07243084 -0.15167585 -0.6064881 0.111015454 0.002221878 0.45411062 -0.1707151
0.072020926 -0.18457079 -1.1472055 -0.24487247 -0.383831 -0.25085306 -0.16412945 0.42516595
-0.10558496 -0.19986092 0.48503253 -0.16077906 0.29596853 -0.40194383 0.30751038 -0.13470058
0.69285136 -0.27337852 0.3713286 -0.19617821 0.44425812 0.101355374 -0.6754598 -0.0046346453
0.2208403 0.35222676 -0.28134465 -0.22843717 0.3195339 0.31437135 0.15661901 0.28397992
-0.2985328 0.07895789 0.4483459 -0.55134714 0.17677633 0.39104894 -0.3572688 0.028706573
0.03860751 0.18605638 0.006433748 -0.56716776 0.15285373 -0.10378044 0.27824092 0.27595657
0.19989523 -0.028094254 0.21050721 -0.05910845 0.9073136 0.034402307 0.4114608 0.28541216
-0.0071409233 -0.39361852 0.15351693 0.03015595 0.37374866 0.47410122 0.23759957 0.015730543
-0.1509675 -0.25306794 -0.25978473 0.37101966 -0.6380878 0.096702516 0.060696073 0.14050856
0.089287356 0.21034995 0.060346488 -0.2704724 0.4169819 0.29114705 -0.18345886 -0.5973401
0.2874645 0.27365956 -0.11852406 -0.13131472 0.20837967 -0.064072676 0.33683565 -0.16736737
-0.55155855 0.11005477 0.7719146 -0.3148274 0.3285145 0.07200512 -0.0047576944 0.11470335
0.61708957 -0.12864476 -0.50776714 0.15597412 -0.054569736 0.27548403 0.013598157 -0.048213486
0.39462215 0.2044437 0.10213338 -0.030559238 0.24512184 0.038957976 -0.22841997 0.098465696
0.18020736 0.23967655 0.2033759 -0.23144604 -0.09287721 0.0041846717 -0.10587449 -0.12012407
-0.3263863 -0.47472787 -0.1201975 -0.65547365 0.56821215 -0.05910468 0.115789756 0.018148828
0.027780157 -0.044788484 0.24166557 0.1059809 0.14844966 -0.17644599 -0.048526656 -0.039736994
0.3113986 0.393909 0.455252 0.7100488 0.20259653 0.12533677 0.5359978 -0.092761055
0.03992459 -0.034962587 -0.23566332 -0.114603534 -0.40948182 -0.23995267 -0.029485438 0.52222764
-0.6840411 -0.11923525 0.26471648 -0.12499894 -0.07538636 0.18391657 -0.090055086 -0.18941611
0.08236893 -0.045581568 0.30579755 0.20097093 0.107402 -0.034717806 0.09855451 -0.15872268
0.2954613 -0.294672 0.24532598 0.3237836 -0.16893935 0.12094928 -0.19416693 -0.10464153
-0.12403258 0.09407658 -0.55032855 0.022630235 0.46160612 -0.18389007 -0.08877182 0.046831746
-0.33095297 0.80570585 -0.35729456 -0.16682166 -0.6037304 -0.02216276 -0.07108369 -0.23697472
-0.40077662 -0.26252335 0.20188977 0.07451701 0.13756104 -0.11876624 0.18937515 -0.17245014

fc1.bias f4 [16]
00000000: e7eb e63e 9eef fe3e a591 2c3e 1cc9 c03e
00000010: c0e3 103f 1d61 fb3e 740c 053f e3ba 7a3f
00000020: b1d9 2b3f c75e 3f3e 20fc a03e 7b6a 8bbf
00000030: 586b 0b3f 4225 4c3f 440a 2b3f 8d6a 3e3f
0.45101854 0.49792188 0.16852434 0.37653434 0.5659752 0.4909753 0.51972127 0.97941417
0.67129046 0.18688498 0.31442356 -1.089187 0.5446067 0.7974435 0.6681254 0.74381334

fc2.weight f4 [8, 16]
00000000: ac59 f93e b3f7 f63e 96de 343f e814 093f
00000010: 840d 043f 8921 233f 2dbd d83e b875 1a3f
00000020: 18a6 e93e 7527 5a3f 9557 343f 7f8c 3abe
00000030: b1b3 4e3f 110d 563f fdac 0b3f ea9e 2c3f
00000040: d773 bf3e 174d c63e 95b7 f53e ff36 f43e
00000050: 2a15 c23e 75ad 353f a13b c13e ce69 d83e
00000060: dd14 e03e 9f9b 8f3f 1303 2b3f 1968 e4be
00000070: 4191 0b3f 4eec cf3e cfc6 1e3f 9f3e 0e3f
00000080: 0478 9d3e e842 a63e bcc7 0e3f dd77 683e
00000090: c9a7 283f e2e7 133f db2f 863e c7f0 b03e
000000a0: f927 e73e 4793 583f e3b1 0a3f 6854 a5be
000000b0: 78b7 bd3e 32b3 0a3f e76e fe3e 7d2f 103f
000000c0: 39a2 09bf feac 29bf 23fe 11bf 006f 00bf
000000d0: 3e01 24bf 2a3c 0dbf dadf 3bbf 7489 4dbf
000000e0: ee19 1fbf dcef 19bf 6df1 12bf e258 9d3e
000000f0: 656a 07bf 7a91 2ebf 08b5 11bf 594d 47bf
00000100: 462e ec3e 7689 bc3e d5f9 f73e d72a a03e
00000110: 5f49 0f3f 3cce 183f c8da bd3e b267 ad3e
00000120: 2bfd c73e 4b93 6c3f efc4 213f 61eb 00bf
00000130: fa14 013f 5bc8 ec3e e8fd 163f 391e 033f
00000140: b62f fe3e 5fc7 b63e 4f4f ee3e 7e08 a73e
00000150: 1cc6 283f 2a89 253f 1e49 d53e 3d5b 303e
00000160: 8c32 e83e 0741 7a3f 61cf 023f a85e 2fbf
00000170: 8876 d73e c017 b23e 3e0f 0d3f c61b 2d3f
00000180: 9632 673e f1f5 013f f6f5 733e 6afb 563e
00000190: 394f e73e a056 e53e ea96 733e 3b58 593e
000001a0: 6534 c63e 41ca 6d3f cf08 e63e 20da 3ebe
000001b0: 69b4 a83e 2fe9 f93e 6735 2a3f 0962 113f
000001c0: e1b3 fd3e 6468 fa3e 7c37 ff3e e8fa c93e
000001d0: 7b6c 2e3f 407f 553f 812a 7b3e 7da2 313f
000001e0: 28c6 0e3f bac3 813f 21da 1d3f 5042 efbe
000001f0: 3581 3c3f 09e5 463f 6566 443f 2adb 263f
0.48701227 0.48235855 0.7065214 0.53547525 0.51583123 0.63723046 0.4233183 0.60335875
0.45634532 0.85216457 0.7044614 -0.18217658 0.8074294 0.8361369 0.54560834 0.67429984
0.37393066 0.3873069 0.47991624 0.4769821 0.37906772 0.709678 0.37740806 0.42268223
0.43765917 1.1219367 0.66801566 -0.4461067 0.54518515 0.40609974 0.6202211 0.555643
0.30755627 0.3247292 0.5577352 0.22701974 0.6588102 0.577757 0.26208386 0.345587
0.45147684 0.8459973 0.54177684 -0.3229096 0.37054038 0.5417968 0.49693987 0.5632246
-0.5376316 -0.6627959 -0.57028407 -0.5016937 -0.64064395 -0.5516993 -0.73388445 -0.8028786
-0.6214894 -0.6013162 -0.57399637 0.30731875 -0.5289672 -0.6819073 -0.56916857 -0.778524
0.46129054 0.36823624 0.48432794 0.31282684 0.5597133 0.5968969 0.3708098 0.33868176
0.3906034 0.9241225 0.6319112 -0.5035916 0.5042263 0.4624661 0.5898118 0.5121799
0.49645776 0.35698983 0.46544883 0.32623667 0.6592729 0.6466242 0.41657346 0.17222305
0.45351064 0.97755474 0.51097685 -0.6850381 0.4208262 0.34783745 0.5510138 0.67620504
0.22577891 0.507659 0.23824295 0.20994344 0.4517763 0.44792652 0.23788038 0.21225064
0.3871185 0.9288674 0.44928595 -0.18637896 0.32950142 0.48810717 0.66487736 0.56790215
0.495513 0.4890777 0.4984702 0.3944924 0.6813428 0.83397293 0.24527933 0.6938856
0.5577111 1.0137856 0.61660963 -0.4673028 0.73634654 0.7769323 0.7671874 0.6517817

fc2.bias f4 [8]
00000000: b18b cf3c 32c2 563c 0f06 94bc b3cb 7d3f
00000010: 3698 8abc 0e02 30bc 8257 f63b b5a2 0d3b
0.025335165 0.013107823 -0.018069295 0.99138945 -0.016918283 -0.010742677 0.007517756 0.0021611874

fc3.weight f4 [1, 8]
00000000: e146 6abe 510c 93be 4cc7 8ebe 8826 493f
00000010: b0db 87be d015 c1be ebbb 94be 40f1 85be
-0.228786 -0.28720334 -0.27886426 0.7857442 -0.26534796 -0.37711954 -0.2904962 -0.26160622
